LeNet1/weight/20_model.pth (torch, 249799 bytes, 10 tensors)

c1.weight f4 [6, 1, 5, 5]
00000000: d7fe 9d3f 9d63 e93f aacb ac3f 8e38 2e3e
00000010: b420 b83d 20c7 a93f 535e 9240 8672 b840
00000020: 2f20 4440 1b92 da3e 1772 2f3e 7799 b23f
00000030: 8449 6e40 7879 0940 bc22 b73d 27bf e6be
00000040: 3394 42be a9f6 7ebe 563a c13b a7be d33e
00000050: a790 48bf 2543 57bf f153 01bf 21a1 10bf
00000060: ec9e 89be 17df 30bf f63c efbe 3431 f1be
00000070: 9126 91bf 135e 8bbf 5e63 d03d 4e26 363f
00000080: a509 483f 8940 b2bd b764 44bf b9cb 803e
00000090: f840 fd3f 954c 3640 9761 3a3f bb7b 03bf
000000a0: 3c4a b8be 42e0 1d3f dccf aa3f 8a64 513f
000000b0: e30d 25be 00c3 4abf fa82 2dbf 8228 903e
000000c0: eb95 4e3d 713a a1be 6638 f9be 4c05 b7bf
000000d0: e3f6 edbf 8ee0 6abf 2407 07bf 6eb7 883f
000000e0: daf1 893f 0fac ea3e 293f bc3e 0073 5b3e
000000f0: 2301 d93f fe81 c340 ea51 d240 f98e 2040
00000100: 0f1e 253f 315a c33e 485d f33f 013c 8540
00000110: bb20 d23f d73f c03e 4a22 30bf 9775 99bf
00000120: f100 4ebf 427e a2be 58eb 4f3c 1e3b 063f
00000130: 2984 093f cdfe 10be c826 78bf 2b94 e1be
00000140: 5981 533f 5cb5 263f 4fdf 613d d12a 6cbf
00000150: 28c9 1dbf b707 353f 4e0c 6c3f edad c33d
00000160: 1e5e 79bf d07d 3cbf b641 fc3e c82d 4d3f
00000170: c07d ccbd 363a 83bf 11db 01bf d3af 9a3e
00000180: eb5f cc3e 7031 50be 4dae 2fbf 6332 fabe
00000190: c213 adbe 31b1 563f eac7 e83e d779 56bf
000001a0: ce0f 17bf e582 c8be 494b 913f 592c 033f
000001b0: 152a 4fbf 10c8 fcbe d0aa 9bbe 2596 9a3f
000001c0: 6337 813f 8100 e7be 14ea 09bf 7169 d8be
000001d0: 1fbe a93f b065 a73f 37f5 0bbe fe36 71be
000001e0: ff6f 38bf cbb2 ca3e a3fb 803f 8a64 06bd
000001f0: d8c0 873d f1fe aa3e 95b0 903f ea48 a63e
00000200: a197 33bf f3fe 05bf 967c fb3e 2634 dc3f
00000210: ec15 4b3f da42 c2be 0aa1 6abe 6ca7 c7bd
00000220: 225c ae3f d92a bd3e 7f15 e5be d2f8 31bf
00000230: 4111 37be 3da9 8b3f 7dd2 92bd 216f 35bf
00000240: 3467 3bbf 4c12 31bf 9e31 da3e 8b99 e8be
00000250: ee8e a5bf 66dd 58bf
1.2343396 1.8233525 1.3499653 0.17013761 0.089906126 1.3263893 4.574014 5.76398
3.0644643 0.42689595 0.17133366 1.3953084 3.723237 2.1480389 0.08942172 -0.45067713
-0.19001846 -0.24898781 0.0058968468 0.41356394 -0.7834572 -0.8408683 -0.5051871 -0.56495863
-0.2687906 -0.6909041 -0.46726197 -0.47107852 -1.1339895 -1.0888084 0.10175203 0.711522
0.78139716 -0.08703715 -0.7671618 0.25155428 1.9785452 2.8484242 0.7280516 -0.5136067
-0.35994136 0.61670315 1.3344684 0.81794035 -0.16118579 -0.79203796 -0.6777798 0.28155905
0.05043594 -0.314899 -0.4867584 -1.4298491 -1.8590969 -0.91748893 -0.5274527 1.0680978
1.0776932 0.45834395 0.36766937 0.21430588 1.6953472 6.109618 6.5724993 2.5087264
0.6449899 0.38154748 1.9012842 4.1635747 1.6416239 0.37548706 -0.6880232 -1.198901
-0.80470186 -0.31736952 0.012690388 0.52433956 0.53717285 -0.14159699 -0.96934175 -0.44058356
0.82619244 0.6512048 0.055144604 -0.9225283 -0.61635065 0.70714897 0.92206275 0.09554658
-0.97409236 -0.73629475 0.49268883 0.8014798 -0.099849224 -1.025214 -0.50724894 0.30212268
0.3991693 -0.20331359 -0.68625337 -0.48866567 -0.33804137 0.8386412 0.45465022 -0.8377966
-0.5900849 -0.39162365 1.13511 0.51239544 -0.8092359 -0.49371386 -0.30403757 1.207707
1.0095028 -0.45117572 -0.538728 -0.42267945 1.3261145 1.3077908 -0.13667761 -0.23556134
-0.7204589 0.39589533 1.0076793 -0.032810725 0.06628579 0.3339763 1.1303889 0.32477504
-0.7015324 -0.52342147 0.4911849 1.7203414 0.79330325 -0.3794163 -0.22912994 -0.0974873
1.3621867 0.36946753 -0.44742963 -0.69520295 -0.17877676 1.0911022 -0.07169054 -0.70872694
-0.7320435 -0.69168544 0.4261598 -0.45429644 -1.2934244 -0.8471283

c1.bias f4 [6]
00000000: 8581 0bbf 6375 05bf d2e5 78bf e7c1 2a3e
00000010: 97a9 25bf 8004 a6be
-0.54494506 -0.5213224 -0.9722568 0.1667553 -0.647119 -0.32425308

c3.weight f4 [16, 6, 5, 5]
00000000: 3997 8e3d d520 dc3c 6da4 50be 1bc8 7e3d
00000010: c23a cf3d b569 82bd 8097 cbbd 944c b53d
00000020: f2dc 903e f8dd 9a3e ff0f 61bd de08 39bd
00000030: 09c9 a53c 45d9 433e 8530 8d3e 3d08 03be
00000040: 9920 88be 1107 c0bd 70f2 f6bd a41d fcbd
00000050: a13b bcbc 4ece 62be e7a8 27be dc29 ccbe
00000060: b473 b3be 21f0 87be cd59 b2be b38a b9be
00000070: 2003 22be 7a9b ff3d 9e39 80be 374a bcbe
00000080: 5089 e1be 300e e4bd 63ad d43d 97e8 adbd
00000090: b9be 48bd b163 87be 209d 4e3c fd75 4a3b
000000a0: 96cb febd 4313 82bd f0ef b2bd 33c3 c6bd
000000b0: 8f24 51be cf1c 5abd 5d42 163e 58ca 3cbe
000000c0: 196b e2be 1c6a c3be e739 52ba 42b0 46bd
000000d0: 1bbb 3b3d 6090 593e 481e 943e 73e5 3bbd
000000e0: 23db a6bd 644e 9b3e 955f 073f 3e39 be3e
000000f0: 4b08 5f3c 12e9 e6bc bc74 bc3d 22c9 7b3d
00000100: 304a fc3c 54e1 b8bd 71b6 34be 91c5 d2bd
00000110: 271e 81be 8e47 9bbe 03bc 913d 8663 cabc
00000120: 9703 bfbe a2fa 34bf 1384 4cbf 26ea d43e
00000130: 357a fd3e c5a5 bd3d 1844 a2be 1429 09be
00000140: 17b7 f03e 8f08 b13e 7caf 15be 9d95 9ebe
00000150: f42a 173e 7ece a93e 3152 513e 94bb 0cbe
00000160: 3048 4f3d a96d 883e 6cf5 383e e908 f73d
00000170: a09a e43d 585f a33e 2100 ec3e 6b1f 5f3e
00000180: 8788 0d3e 2856 b33e ba01 fc3e 1746 da3e
00000190: 6f21 7ebe 1555 c5be 2732 e3be 0776 e2be
000001a0: 138f 693e 88df 9bbe cd0a a5be b00b 06bf
000001b0: 6af1 d7be 1563 533e 9907 a6bd 344b 45be
000001c0: 5851 88be 3bbe f9bd 1d0c 463d ade6 13be
000001d0: 8d00 b03c 3b6e d4bd 23a2 d6bd 3bf8 9abe
000001e0: fdba 8d3d 2c02 4a3e 4d41 f53d be18 b0bd
000001f0: d018 c9be e301 5d3e eefa 683d 5870 86be
00000200: 0cbe f1be b070 86bc 74d4 00be f1d6 81be
00000210: e8a5 10bf 2836 fbbe 8804 663d ca40 35be
00000220: 85cc 67be 8cc6 f9be a7b1 44be 3be6 793e
00000230: 5589 e3bd 65ba 3ebe c185 fd3c 7c0c c63d
00000240: d7b7 483e 368a eabd 3d35 83bc 83fd 2f3e
00000250: 7b4f 033d 893e b63d a103 a5bd 17a3 16bf
00000260: 4915 2bbf dc9d c6be b551 18bd 8d87 f83d
00000270: b069 e5be c256 6ebf 5bd2 d7be 8cdc 873c
00000280: f6bf 383e e70c 84be bb31 e3be a2fe e6bc
00000290: 94e2 7c3c d650 993e b275 033e 8efe f4bb
000002a0: 7519 c13d 0c8c c13d 8a5b c43e 49e9 563e
000002b0: 9bdf da3d ffb7 953e fbb7 343e 6420 dc3c
000002c0: 2827 f8be b287 3ebf 6425 d7be 4637 5cbe
000002d0: 3808 b43c f5fd b0bd ce56 09bf fa72 97be
000002e0: 8d95 07be 0d02 2f3a 221f dabc 276a 39be
000002f0: 662a 80bd f993 ddbd f508 1c3e e3b9 0b3e
00000300: 4e70 b43c 11af 0a3e e134 34be 5ab0 bb3e
00000310: e711 243e ac23 6f3e f0b5 7f3e e2b9 9a3d
00000320: 4afe 8ebd 5462 17bf 9ab5 74bf c004 ebbe
00000330: 4800 43be 0973 603e 7124 aebe d8cf 2abf
00000340: 78a5 30be f559 a8bd 8133 8d3e 5d65 5dbd
00000350: 1db6 a3be 69cf c03d e922 2a3b 5186 ee3e
00000360: abab 793e 17bc 49bd 62f2 343e 1453 963d
00000370: b76b 9d3e fa36 443e fb37 3b3e 4308 7c3e
00000380: af94 1c3e b86e 30bc 5688 393e 96c0 bcbd
00000390: bc69 47be 0f93 4ebe e5fc 60bb 1038 733e
000003a0: 1c72 ea3c 2a49 09be 40c5 6cbd be69 babd
000003b0: fd7e 4a3d 8dab df3c 7973 a93d 1684 143e
000003c0: 628a 68be 5e30 1fbe 756a ddbd b78b 193e
000003d0: 0e53 b33e 7338 85be 0905 35be d191 34be
000003e0: c43e 063e 02f2 0f3f 80a0 8f3d 9c2e 97be
000003f0: cb40 07bf 0c49 abbe fbb1 2dbe a3ec 333d
0.06962437 0.026871124 -0.20375223 0.062202554 0.10118629 -0.06367818 -0.09941006 0.08852497
0.28293568 0.30247474 -0.054946896 -0.045174472 0.020237463 0.1912585 0.2757608 -0.12796111
-0.2658737 -0.09376348 -0.1205796 -0.12310341 -0.022977652 -0.22149011 -0.16373025 -0.39875686
-0.35049212 -0.2655039 -0.34834138 -0.36238632 -0.15821505 0.12480827 -0.25043958 -0.3677537
-0.44050074 -0.111355186 0.103846334 -0.084916286 -0.049010012 -0.26443246 0.012610704 0.003089308
-0.12441175 -0.0635133 -0.08737171 -0.097052 -0.20424102 -0.05325013 0.14673753 -0.18436563
-0.44222334 -0.38166893 -0.00080194924 -0.048507936 0.045832735 0.21246481 0.28929353 -0.045873117
-0.08147266 0.30333245 0.5288022 0.37153047 0.013612817 -0.028187308 0.09201953 0.061471112
0.030797094 -0.09027353 -0.17647721 -0.10291589 -0.25218317 -0.3032803 0.071159385 -0.02470566
-0.37307426 -0.70694935 -0.7988903 0.4158489 0.495073 0.09260134 -0.31692576 -0.13394576
0.47014686 0.34576842 -0.14617723 -0.3097352 0.14762479 0.33165354 0.2044151 -0.1374343
0.050605953 0.26646164 0.18062371 0.12062246 0.11162305 0.3190868 0.46093848 0.21789329
0.13821612 0.3502667 0.49220067 0.426316 -0.24817441 -0.38541475 -0.443742 -0.44230673
0.22808485 -0.30443978 -0.32234803 -0.52361584 -0.42176372 0.20643266 -0.08106918 -0.19266969
-0.2662456 -0.12194487 0.048351396 -0.14443465 0.021484638 -0.10372587 -0.10480144 -0.3026751
0.06920431 0.19727391 0.11975346 -0.08598469 -0.39276743 0.21582751 0.05687993 -0.26257586
-0.47215307 -0.016411155 -0.12581044 -0.253593 -0.5650315 -0.49064755 0.056156665 -0.17700496
-0.22636612 -0.48784292 -0.19208394 0.24404232 -0.111101784 -0.18625791 0.030947568 0.0967035
0.1960138 -0.11452143 -0.016016597 0.17186551 0.03205822 0.088986464 -0.08057333 -0.58842605
-0.66829354 -0.38792312 -0.037187297 0.12135229 -0.44807196 -0.9310113 -0.42152676 0.016584657
0.18041977 -0.25791094 -0.4437388 -0.02819759 0.01543488 0.29944485 0.12837866 -0.0074766343
0.09428684 0.0945054 0.3835109 0.20987429 0.106871806 0.2924194 0.17648308 0.026870914
-0.48467374 -0.74425805 -0.42020714 -0.2150546 0.021976575 -0.086421885 -0.5364808 -0.29579908
-0.13240643 0.0006676026 -0.026626173 -0.181069 -0.06258087 -0.10819239 0.15237792 0.13645129
0.022026207 0.13543345 -0.17598297 0.36657983 0.16022454 0.23353451 0.24971747 0.075549856
-0.069820955 -0.5913441 -0.955896 -0.4590206 -0.19043076 0.21918882 -0.34012178 -0.66723394
-0.17250621 -0.08220283 0.27578357 -0.054051746 -0.3197488 0.0941456 0.002596075 0.4658685
0.24381892 -0.049251642 0.17670587 0.07340065 0.30746242 0.19161597 0.18283074 0.24612527
0.15291093 -0.010768585 0.18118414 -0.0921642 -0.19473928 -0.20173286 -0.0034330424 0.23751855
0.028618865 -0.13406816 -0.0578053 -0.091022 0.04943751 0.027303481 0.08273978 0.14503512
-0.22709039 -0.15545794 -0.10811321 0.14994703 0.35024303 -0.2601963 -0.17677702 -0.1763375
0.1310988 0.5622865 0.07013035 -0.29527748 -0.5283324 -0.33454168 -0.16962425 0.043926846

c3.bias f4 [16]
00000000: 4f22 503e 1f0e c0bd ba34 9abc 6f97 ab3c
00000010: b551 6abe 74e3 093d cbc6 e6bd f4cd d73d
00000020: dc30 de3d 2013 d1bd edec dbbd 36b3 88be
00000030: 025c 153d 0c99 383e 215d b8bd e6c7 853e
0.20325588 -0.093776934 -0.01882397 0.020946233 -0.22882731 0.03366418 -0.112683855 0.10537329
0.10849163 -0.10208726 -0.107385494 -0.26699227 0.0364647 0.18027133 -0.09002138 0.26129073

f5.weight f4 [120, 400]
00000000: 6ab4 d7bd e020 acbb 2702 2cbe 7ab1 87bd
00000010: 72c8 5cbe 281a 5dbd 88ff 8d3d d190 033c
00000020: 6dea 1a3c 7b89 dc3d d07d 67be 8fe9 a3be
00000030: bed5 c9bd 8d8d 833d 1e27 073f c107 c5bd
00000040: dd54 533e beea a23e aba5 053d 2499 a73d
00000050: ec0d 7b3e bf9b 833e d322 913e 898b 71bd
00000060: 02ea af3d aac2 afbd c586 8b3b 7ab2 b4ba
00000070: 89db b6bc 014c a3bc 4603 243e 01bc 0e3c
00000080: fe9a 673e f88c 1dbe 49b9 253e 74f6 dfbd
00000090: 479c 1cbe 7619 0a3e 1e93 90be 8894 b93e
000000a0: 25c3 213e 6038 02bf d3a3 c2bb 4dff 9abd
000000b0: 196f cd3e 00bf cdbd b542 ebbe 0dff 02bf
000000c0: 8516 35be 2bb6 c7be bd99 a7bd adb3 1fbe
000000d0: 840a 10be 34e8 343e 99e8 843d c5a5 97bd
000000e0: 3470 36be 912c 60be 454f 373e b430 1fbd
000000f0: 207a 74bd ee32 25be eaaa c23d 78ba 5b3d
00000100: aca7 d43c 7ca5 49bd f3b1 c23d 694a 303e
00000110: c38a 91be 7a52 8c3b d91c bf3e d0e9 6d3e
00000120: 294f dc3e ac52 453e 8a24 ee3c c26e 393d
00000130: 985b 1a3e a3cb 123e 5d4d 38be 3565 693d
00000140: 8636 3cbb b46a e6bd 67b1 f6bd f466 883e
00000150: e3e2 90bd 2564 c6be 0f21 c1be d758 22be
00000160: c321 443e 53b8 4cbe 023f bb3b f8aa e9bd
00000170: 765e 733e b4a9 88be 63bd 54bd 0da8 9b3e
00000180: 33d1 60bd 8d50 913a f12a 96bd 2d49 1f3e
00000190: 217e a93c a9b6 ce3d 352f c83d bf22 19be
000001a0: 9884 b0ba 7aef 943c 5182 04be 8d88 003d
000001b0: 86d1 4bbc 2724 083e bf4e c03c 2141 a2be
000001c0: 9548 ccbd 6cc0 d93d 7c4e 91bd 47d4 223d
000001d0: 278d 18be 2005 3b3b de96 ffbd 4d0e 25be
000001e0: de41 3a3d 379e ce3e aa0b 8b3e dbe4 fe3d
000001f0: 008b 4b3c 61b0 183e b676 493e dcc6 093e
00000200: e831 893c 0d29 de3c 7d5d 1bbe f5e8 67be
00000210: e98a 93bd f97a c1bd 7eef 9f3d 21f0 f6bd
00000220: 6e34 6ebd abaa 9dbc c27b 99be 4437 38be
00000230: 3747 a9bd c928 12be e995 1fbe 3a22 a4bd
00000240: 8079 6fbe 3ad5 923e eb32 74bd a4a1 b63e
00000250: e898 fcbe e5bc 04bf 2ce8 093d 0453 bc3d
00000260: c987 a63c 23a1 88bd da22 953c 28bb 933c
00000270: 9ee0 8e3d aeff 8abc bce9 a73d 0db3 8d3d
00000280: 029a 303d 1a53 633d cc4f 673d 588c 033e
00000290: fe58 9fbc 983b 08bc a3b2 893a ee98 c13d
000002a0: 15f3 e43d de04 fbbd e4d8 adbd 6659 9d3d
000002b0: 2ed6 6e3d d366 8d3b 7311 5dbc 1129 60be
000002c0: dcf9 863d a152 163e 23b1 4ebd 8449 403d
000002d0: 9575 07bc 06e0 3e3c 96d9 74be 823b 0d3e
000002e0: c6f4 59bc 791c af3d 864a 393e 9cba 9a3e
000002f0: 8fbd bf3d b88f a93d 2aec 0a3d 9676 14be
00000300: fb35 8cbe e00f 49be efd2 e6bc 02c3 623d
00000310: 7d6f d23d 1f01 5cbe ed02 233e 3ee0 3d3e
00000320: ad9a 73bd 349c e83d 00e1 1e3e fce2 f3bd
00000330: 6614 743e 9ad9 493c 7b10 613c afce b43e
00000340: d3cf b33e fd2f 333e 8690 8e3d 786c 75bd
00000350: 1b50 f23d e233 013f fa46 053d 1a88 1abe
00000360: b403 a2bd 7dba 5bbd c553 913e 266c fdbd
00000370: f3cd 09be 1752 2d3e 329c 9b3b 63ab 9f3d
00000380: edac 5fbe 2390 df3d 6a31 313e a33e 373c
00000390: 8a61 85be 1bd8 82bc b092 e73d eacb 4f3e
000003a0: 20e5 de3d 51d5 803e 128a a83b 56a7 acbd
000003b0: b597 7d3d 26d7 653e 2352 a03d 7e69 0bbe
000003c0: 6157 36bd 4651 813d 9fb9 21be 0e0b 15be
000003d0: bdcf 273e 0496 973d 7a22 193e 204e b9be
000003e0: 0015 a9bb 8ffc 983e 0f05 14be d27c 6bbe
000003f0: e109 893d 5aad 273c b87d 8bbc c397 273e
-0.10532458 -0.0052529424 -0.16797696 -0.06625648 -0.21560839 -0.053980023 0.06933504 0.008030132
0.0094553055 0.1076841 -0.22606587 -0.3201413 -0.09855221 0.06423483 0.52794063 -0.096206196
0.20637842 0.3181972 0.032628696 0.08183506 0.2451703 0.25704762 0.2834688 -0.05897096
0.08589555 -0.08582051 0.004258009 -0.00137861 -0.02232148 -0.019933702 0.16016874 0.008711816
0.22617719 -0.15385807 0.16183962 -0.10935679 -0.1529399 0.13486275 -0.28237242 0.36246133
0.15797098 -0.5086727 -0.0059399395 -0.07568226 0.40123823 -0.10046196 -0.4594933 -0.51170427
-0.17684372 -0.3900617 -0.0818362 -0.15595885 -0.14066511 0.17666703 0.06489677 -0.07404665
-0.1781624 -0.21892 0.17901333 -0.038864806 -0.05968678 -0.1613271 0.095052555 0.053644627
0.025958858 -0.049230084 0.09506597 0.17215885 -0.2842618 0.004282293 0.37326697 0.23233724
0.43029144 0.19269818 0.029070158 0.045271643 0.15074003 0.14335494 -0.17998262 0.056981284
-0.0028719022 -0.11250821 -0.120455556 0.26641047 -0.07074525 -0.3874828 -0.37720534 -0.15854202
0.19153504 -0.19992189 0.005714298 -0.11409563 0.23766503 -0.26691973 -0.051938426 0.3040165
-0.054887008 0.0011086628 -0.07332409 0.15555258 0.020690026 0.100934334 0.09774629 -0.14954661
-0.001346725 0.018180598 -0.12940337 0.031380225 -0.012440091 0.13295041 0.023475049 -0.31690314
-0.099747814 0.10632405 -0.07095048 0.039753225 -0.14897595 0.002853699 -0.124799475 -0.16118737
0.045472972 0.40355083 0.27157336 0.124459945 0.012423277 0.14911033 0.19674191 0.13454765
0.01674743 0.027119184 -0.15172382 -0.2264746 -0.072042294 -0.09447283 0.078093514 -0.1205752
-0.05815547 -0.01924642 -0.29977232 -0.17989832 -0.08265536 -0.14273371 -0.1558453 -0.08014341
-0.23386192 0.28678304 -0.05961887 0.35670197 -0.49335408 -0.5185073 0.033668682 0.091955215
0.02032842 -0.066713594 0.018205095 0.018033579 0.06976436 -0.01696762 0.08198878 0.06918917
0.043115623 0.055499174 0.056472585 0.12846506 -0.019451614 -0.0083149895 0.0010505508 0.09452997
0.11179177 -0.12256788 -0.08488634 0.07683067 0.058309726 0.004315236 -0.01349293 -0.21890666
0.06590626 0.14679958 -0.0504619 0.04694511 -0.00826778 0.011650091 -0.23911127 0.13792232
-0.013302987 0.085503526 0.18094835 0.30220497 0.09362327 0.08279365 0.03391663 -0.14498362
-0.27384934 -0.19634962 -0.028176753 0.055361755 0.10275171 -0.21484803 0.15919085 0.18542573
-0.059473682 0.113579184 0.15515518 -0.11908528 0.23835906 0.012319947 0.013736839 0.35313937
0.35119495 0.17498775 0.069611594 -0.059917897 0.11831685 0.5046979 0.03253839 -0.15090981
-0.079108626 -0.053644646 0.28384224 -0.12374143 -0.1345747 0.16925846 0.0047488445 0.07796361
-0.2184331 0.10916164 0.17304006 0.011184367 -0.2605098 -0.015972188 0.11307275 0.20292631
0.10883546 0.25162748 0.0051434124 -0.08430354 0.061912257 0.22445354 0.07828166 -0.13614461
-0.044516925 0.0631433 -0.15793465 -0.14554998 0.1638784 0.0740166 0.14954558 -0.36192417
-0.005159974 0.29880187 -0.14455055 -0.22996834 0.066913374 0.010234201 -0.01702772 0.16366486

f5.bias f4 [120]
00000000: cd93 69bc 95e1 683e 5a6f 25bd f5d8 b4bd
00000010: ef7a 51be 3093 20bd ef6b 13bc c34d 1abd
00000020: 5c2f f5bd 6e82 043e d0d5 01bd 6bf2 173e
00000030: 6825 893c 3d6c a0bd 8567 31be 9c13 533d
00000040: d2af 2bbe 83af 8bbd c768 eb3d 7271 dfbd
00000050: 6d35 f1bd 28e6 983d d329 fcbc 283c 933d
00000060: b965 0abe b0bc 0ebe 6dca 2dbe a184 f83d
00000070: 36ae 39be eba2 323d e29a b3bd 29e7 54be
00000080: 8911 c63c cecd 4e3d ba07 483e 5124 aabd
00000090: 19d8 73bc 84fb ecbc 03eb 3fbe 4da6 273e
000000a0: 73d5 5ebc 1961 453c c805 1e3e ac1a e83d
000000b0: 7b95 ccbb f731 cf3d 6dab 3cbe a43b 6dbe
000000c0: 4695 1c3e 3acb 16be d477 da3d 9372 003c
000000d0: 29b3 543e 3750 2e3e 70d0 abbd 93b0 1f3d
000000e0: f651 27be d967 f73d 2bd7 c43d a724 5fbc
000000f0: 0bea 49bd 1a16 2abe 6cab 193e 272b 7bbe
00000100: 4e98 4bbc 814a 0b3d c796 61be 3185 9d3c
00000110: 3392 5ebe 3fab a0bc ae9d 4dbe 25fe b43d
00000120: b57d 173e aebb fbbd 96dd 58be c90e 073c
00000130: 9efd 17be 612a 043e f9eb 933d 00bf bc3c
00000140: da59 443e 4e42 cabd f501 89bd 07d5 e0bd
00000150: ff90 2a3e f76c 2e3d c2a6 c53d f863 8bbd
00000160: 0267 653d 324c b8bd 4b59 553e 3faf b5bd
00000170: 0a83 c0bd 5189 30be d5d2 9b3b d46f 953e
00000180: 772a 2c3e 6f44 c5bd 9cea 91bc 2f8e 293d
00000190: bb01 9c3c 960d 75bd 48ca debc 1c45 8bbc
000001a0: 71f4 40bc 5c36 19bd ae0a 96bd b723 823d
000001b0: 4e2e c3bd dc98 3f3d 8fcb ddbd cd69 2b3d
000001c0: 891c 56bd 8db4 bbbd f269 203e 94aa a83d
000001d0: cb83 a7bd f304 8abc 750f 1d3c 1529 2e3e
-0.01425643 0.22742303 -0.040389396 -0.08830444 -0.20457052 -0.03920287 -0.008997901 -0.037671816
-0.11971924 0.1294038 -0.031698048 0.14838569 0.01674147 -0.07833145 -0.17324646 0.051532373
-0.16766289 -0.068205856 0.11494594 -0.1091031 -0.11777768 0.07465774 -0.030781662 0.07189208
-0.13515367 -0.13939166 -0.1697175 0.12134672 -0.18132862 0.043612402 -0.08769776 -0.20791306
0.024178283 0.05048924 0.19534197 -0.08307708 -0.014883065 -0.028928526 -0.18741994 0.16372032
-0.013600695 0.012047076 0.15431893 0.11333212 -0.0062434054 0.10116952 -0.18424769 -0.23167282
0.15291318 -0.14725962 0.10667387 0.007839817 0.20771469 0.17022787 -0.08389366 0.038986754
-0.1633986 0.12080354 0.096113525 -0.013619578 -0.049295466 -0.16609994 0.15006799 -0.2452818
-0.012426449 0.0340066 -0.22030173 0.01922855 -0.21735458 -0.019612907 -0.20079681 0.08837537
0.14794047 -0.122916564 -0.21178278 0.008243271 -0.14842841 0.12906791 0.072227426 0.023040295
0.191749 -0.09875928 -0.066898264 -0.10978132 0.16656874 0.042584386 0.09650947 -0.06806177
0.05600644 -0.08998908 0.20834844 -0.08871316 -0.09399994 -0.17239882 0.0047553577 0.2918688
0.16813074 -0.09632193 -0.017812066 0.041395362 0.019043794 -0.05982741 -0.027196065 -0.017000727
-0.011777029 -0.037405357 -0.07326256 0.06354468 -0.09530316 0.046776637 -0.10829841 0.041848946
-0.052273307 -0.09165297 0.15665415 0.0823566 -0.081794344 -0.016848063 0.009586205 0.17007859

f6.weight f4 [84, 120]
00000000: f0a1 8fbd 00ef b83c 88d6 8cbc 5d1f aabd
00000010: 9540 42bd 79a7 1d3e 0164 c03d 60d8 ef3c
00000020: c3ae 123d b71e 873c 3741 b1bc 18c1 013e
00000030: 422d fd3c de17 a7bd 9c7c 653c de92 a8bb
00000040: 9fcf 0e3d 1eeb 103c b957 88bd 2519 b8bd
00000050: 2a01 2c3b 87d4 993c 4780 2a3e e924 153e
00000060: 0d5f 123e d613 c53d 92e1 8a3d 819a dcbd
00000070: 8267 033c 3801 1ebd b5a4 d83c fa43 ab3c
00000080: 6683 9bbd 73c2 723d 1b06 963d 9796 80bd
00000090: 978f 00be 869e c83c d89a 86bd 62f1 c2bd
000000a0: 8784 a6bd 62e1 1ebd d6d7 8dbb b13b 8c3b
000000b0: 4c86 993d bae5 b73d d0cd 193e b20c 863d
000000c0: 023c 853d cd89 ca3c 79b9 c3ba 3d41 0c3d
000000d0: b886 5d3d 81a6 da3d 0b5e 5fbb 5295 a63d
000000e0: 9760 633b 9cc4 903d 8c19 b33c d00a 34bd
000000f0: 6c95 79bc a095 b73d ca00 65bb 5019 c33c
00000100: a116 b7bd e542 3fbc 96f9 9fbd 2dca 26bd
00000110: e59c c5b9 d367 c03c 6d40 903c 1f35 a8bd
00000120: c4de e13d 7c0e 2f3d 1296 0ebc 9718 19bd
00000130: cbf0 173e 8844 1f3d f2d0 84bd d946 bdbc
00000140: fa66 07be a46b 8c3d dd9b 10be f708 cdbb
00000150: d24f 3bbc df43 bc3d ebcb b9bd 457e 3e3e
00000160: 64e0 67bd 67e6 2bbd ab45 92ba a951 ddbd
00000170: cdfc 1dbd c894 bc3d 0f19 813d b715 bf3d
00000180: d7de 2abd 86e3 f53d 884d 2abc 7168 d0bd
00000190: a91e cc3c 3af9 163e 1695 1f3d 2159 c13d
000001a0: 8ef1 8cbc c626 23bd 4dc2 373d fb76 bbbd
000001b0: 6651 cb3d dc06 533d 762c 3fbd 0c1c 9bbd
000001c0: d08c 5c3d eccb fa3d be7a 893d 762a 723a
000001d0: 529a 5dbd 396b 5738 dc01 dfbc 04a2 1a3e
000001e0: d785 d4bc c349 01be 0b91 383d 093b 8c3d
000001f0: f8ac 2fbe fa18 dd3d 41b9 bfbc ff00 abbc
00000200: a8b9 a4bc a626 f13d e653 6b3d 887b 0dbe
00000210: 1130 643d 6a7a 813c 5d6d 343d 3136 aa3d
00000220: 5104 7abc b928 de3d 12ae cc3d 0a26 cd3b
00000230: 0da9 d0bd cff0 cd3d 93ee 483e a496 0b3c
00000240: 9314 c53b 652a a33d 174c dcbd 07dd 65be
00000250: c71e c23d e5b4 d7bd c4e8 c4bc fbf4 253c
00000260: 6f8b 253c a49b 5a3e 580a 7b3c fa49 3e3c
00000270: b1a7 273e 42f6 03be 3577 96bc ef5c 22bd
00000280: dc4b 1b3d 7628 fbbd 3203 39bd 6a1e b33c
00000290: 9db1 223d c697 61bc 3d70 323e 05df a2bd
000002a0: 3da3 2b3e 6912 5abd fcbd 903a b3b0 a03d
000002b0: 22ca 033d a7c7 babb 2ecb e33d 8b81 fb3c
000002c0: 4626 373d 3ea4 3fbe a9c6 8cbd 3484 92bd
000002d0: 0b72 a33d 6874 8bbc bd10 3f3d ee59 503d
000002e0: 0bda 08be e452 a8bc 4919 e73b 2824 e23c
000002f0: b8e3 9c3d 7108 9e3c 7a19 bb3d dc51 56be
00000300: 4445 083e d6f5 30be d5bb 8fbd c11e 8abc
00000310: 2ee3 963d be11 813d 68f8 643d ceb9 aebd
00000320: 9f1d 6fbe b4b5 98bd 0cba 3ebc af49 7a3d
00000330: 3295 e7bc b347 c73c 411a b03c f95a 883b
00000340: 5575 8d3d 0c0f 5fbc 1e5d f5bc d2b5 94bd
00000350: 8158 643d 168f 81bd ecd0 ad3d 33d5 623d
00000360: 5936 733e 6df7 b2bc 01bc 8f3d cf05 8bbd
00000370: 68e6 c9bc fb9f 853d 27de 823d 57ec 503d
00000380: 978d 94bd 9b5d 9ebc 7ea2 8a39 f42d 053d
00000390: b7d1 0ebe 64a2 a53d 8518 aabd bbd7 a0bd
000003a0: 4078 87bd bb80 1ebd eb58 b23a 288c 473c
000003b0: 5846 823c 5ea6 b2bb 8e3b cabc f765 3e3e
000003c0: 30fd 473d f15d 11be 6d3e 573e 4e85 7c3b
000003d0: 3fee 6cbd f056 0b3e 733a cfbc ef96 803d
000003e0: 5d38 d73c 0491 28bd 0144 e33d e3a4 a23d
000003f0: 7923 803c 732d 193d 1dde 7a3c 697f 20bd
-0.07013309 0.022574902 -0.01719214 -0.08306763 -0.04742487 0.15395917 0.09394074 0.02927798
0.035811197 0.016494138 -0.021637542 0.12671316 0.03090537 -0.08158849 0.01400676 -0.005144461
0.03486597 0.008845119 -0.06657357 -0.08989171 0.002624581 0.018778099 0.16650496 0.14564861
0.14294071 0.09622924 0.067813054 -0.10771657 0.008020284 -0.03857538 0.026445726 0.020906437
-0.07593422 0.059267472 0.07325383 -0.06278723 -0.12554775 0.024489652 -0.06572503 -0.09518696
-0.08130746 -0.03878916 -0.004328708 0.0042795767 0.07496318 0.08979364 0.15019917 0.0654539
0.06505586 0.024723912 -0.0014932594 0.034241904 0.054083556 0.10676289 -0.0034083154 0.08133949
0.0034695023 0.0706875 0.021862768 -0.043955624 -0.015233379 0.089640856 -0.0034943097 0.02381578
-0.08939863 -0.011673664 -0.078112766 -0.040720154 -0.00037691664 0.023487007 0.017608846 -0.08213257
0.11028817 0.042738423 -0.008702772 -0.037376966 0.14837949 0.038883716 -0.06485166 -0.023105072
-0.13222876 0.06856468 -0.14121957 -0.006257172 -0.011432605 0.09192633 -0.090720974 0.18602856
-0.05661048 -0.041967776 -0.0011159679 -0.10806591 -0.038571168 0.09208065 0.06303608 0.09330314
-0.041716423 0.12006287 -0.010394461 -0.101761706 0.024916964 0.1474351 0.03896054 0.09440828
-0.017205026 -0.0398319 0.044863034 -0.09153553 0.09927635 0.051520213 -0.04667326 -0.07573709
0.053845227 0.12245926 0.06712864 0.00092378946 -0.05410225 5.1359853e-05 -0.027222566 0.15100867
-0.025942726 -0.12625794 0.0450602 0.068471976 -0.17155826 0.107957795 -0.023403766 -0.020874498
-0.020108059 0.1177495 0.05745306 -0.13816655 0.055709902 0.015805442 0.04404961 0.083111174
-0.015259818 0.10847611 0.09994139 0.006260638 -0.10188494 0.10055696 0.19622259 0.008519802
0.0060144155 0.079670705 -0.107567005 -0.22447596 0.094785266 -0.1053255 -0.024036773 0.010129209
0.010104044 0.21348435 0.01532229 0.011614317 0.16372563 -0.12886909 -0.01836739 -0.03963941
0.037914142 -0.12263577 -0.045169063 0.021865088 0.039720166 -0.013769096 0.17425628 -0.07952694
0.16761489 -0.053240214 0.0011042948 0.07846203 0.03217519 -0.00570007 0.11122738 0.03070142
0.044714235 -0.18714997 -0.06873829 -0.07154122 0.07980736 -0.01702328 0.046646822 0.050867014
-0.13364427 -0.020547338 0.007052575 0.027605131 0.076606214 0.019291135 0.09135719 -0.20929664
0.13307673 -0.17281279 -0.07018248 -0.016860368 0.0736755 0.06302212 0.05590096 -0.08531533
-0.23351143 -0.07456532 -0.011641037 0.061105426 -0.028269384 0.024326181 0.021496894 0.0041612354
0.06907145 -0.013614427 -0.029951628 -0.07261242 0.055748466 -0.063261196 0.08487114 0.055379104
0.237512 -0.021846497 0.07018281 -0.06788217 -0.024646 0.065246545 0.063900284 0.05100664
-0.072535686 -0.019331744 0.00026442477 0.032514527 -0.13947187 0.08087614 -0.08305458 -0.07853647
-0.06614733 -0.038696986 0.0013606822 0.012179412 0.015902683 -0.0054519614 -0.024686601 0.18593584
0.048825443 -0.14195992 0.21019907 0.0038531604 -0.057844397 0.13607383 -0.025296425 0.06278788
0.026271993 -0.041153923 0.11096955 0.07941606 0.015641915 0.03739686 0.015311745 -0.039184008

f6.bias f4 [84]
00000000: 09cc 903d 61b8 8fba 1f49 10bd b504 4dbe
00000010: 654e 9abd fc58 d23b 8e60 d1bd 4c12 bfbd
00000020: 29b3 1c3e d231 823e a155 593d 6165 c6bc
00000030: 9981 a4bd bd50 6dbc ed95 ae3c 2fd0 803e
00000040: c0e6 533d 9a60 cd3d 7312 0dbd 83ea 6e3d
00000050: 3bfd adbd 4ef4 433e 0cd5 583d 3d09 24bd
00000060: ce64 d2bc 9db0 ad3e 3fed 573d 4e23 e9bd
00000070: a1b7 f03c 2a0c 0c3e 38a1 cfbc e70a a1bd
00000080: 16b0 b7ba fb0e 963b ee45 563b 7b88 813e
00000090: 95f6 8a3e 5981 9d3e a3a1 943d 42a4 923e
000000a0: 841a 783b ebb4 403e fa19 0bbe d084 543e
000000b0: b938 383e 57a8 70be 92a3 533d 3e95 4d3d
000000c0: d4ef 3e3e ab00 f6bb 4345 873e 672d a53d
000000d0: cd45 f2bd 6a0d b23c fd66 9c3d a820 b9bd
000000e0: 4a6c 02be 61ab ca3b 50ee 80bd 147f 8bbe
000000f0: 64d3 bbbd 4b94 f6bd 2c03 d1bd e664 5cbb
00000100: 4e62 7abd 706e 80bd f203 eb3d e790 15be
00000110: 6000 203e 1582 4e3e 1099 ff3d 6b76 abbe
00000120: 3653 3b3e fb98 b2bd 875f a33b 7e17 7fbd
00000130: ff99 54be 1b52 40bd 75ae b33e 6d43 463c
00000140: ab23 ae3d 837b ca3b 2db1 6ebd 32db 24bc
0.070701666 -0.0010964983 -0.035225984 -0.20021327 -0.07534484 0.006419299 -0.102234945 -0.09329662
0.15302719 0.25428635 0.053060178 -0.024218263 -0.08032531 -0.014484582 0.021311725 0.2515883
0.051733732 0.10028191 -0.034441423 0.058329117 -0.084955655 0.19136164 0.052937552 -0.040047873
-0.025682833 0.33923808 0.05271649 -0.11383687 0.029384436 0.13676515 -0.02534543 -0.078634076
-0.001401427 0.0045794225 0.003269549 0.2529944 0.27141252 0.30762747 0.07257392 0.28640944
0.0037857601 0.18819015 -0.13584128 0.20753789 0.17990388 -0.23501717 0.051669665 0.050191157
0.18646175 -0.007507404 0.2642003 0.080653004 -0.1182972 0.021734912 0.07636831 -0.09039432
-0.12736621 0.0061849807 -0.062954545 -0.2724539 -0.09171179 -0.120400034 -0.10205683 -0.0033629476
-0.061128907 -0.06271064 0.11475362 -0.14606057 0.15625143 0.2016681 0.12480366 -0.33488783
0.18293461 -0.08720585 0.004985753 -0.062278263 -0.2076187 -0.046953302 0.35094038 0.0121010365
0.08502897 0.0061792745 -0.058274437 -0.010062026

f7.weight f4 [10, 84]
00000000: 0f68 a6bd e452 ffbc 510e 363d baf8 653d
00000010: cef4 39be 05d4 89bd 7f80 14be dbf1 d9b8
00000020: cbf3 04ba 0f7d f33d 31d2 7d3c eef9 8dbd
00000030: d8c3 a83c 8bcf 5d3c 7a56 cb3b 148c 39bd
00000040: 8199 6e3d 0a22 8639 e31e c5bc d961 463e
00000050: 580c 00bd 19dd e53b 0c30 09be 7930 6b3d
00000060: 3e16 16be caa2 b03d 1060 f8bc 095b 16be
00000070: 0ff9 2ebc c561 40be b7f1 1fbe 436c fb3c
00000080: e31d 4abc 86cb 493d bebf 7ebe f627 c13d
00000090: f4e5 f63d 7946 f63d dc1f 363e 0a2d df3d
000000a0: 85c9 863d 2a8f 60be c546 073d 36b4 a63d
000000b0: f6af 0c3d 6259 e83c dba6 073e fc76 d0bd
000000c0: b405 9e3d ac92 e53d 3df1 533d e6ea 59bd
000000d0: 97a4 193d 40c1 19be 9036 923d 5f37 393d
000000e0: f306 783d c358 d23a 5ac4 f73d a5e7 583b
000000f0: d046 403d 5488 b83d ce1e ecbd cdca ea3d
00000100: 7038 733d 88a9 52bc df22 f0bd 1bd0 0c3e
00000110: 4c3a fbbd a1ae 143e f34a f13b 246c 45be
00000120: b7d2 923c 2d0a 533c 7584 b23d 98df c0bd
00000130: 1743 82be b682 5dbc 3e19 303e 1e94 133e
00000140: 8eb6 963d 6116 b13d c5ff 213c 3180 7fbd
00000150: fe51 07be 9648 2abe a166 e5bc d54e 9d3d
00000160: 0f38 f83c 36f6 e03d 0459 3b3c 5242 2dbe
00000170: afe4 4fbe 7e26 56be 1681 593d d5a6 81bd
00000180: 4304 cfbd ad3f 253d fe9f 853c e119 113d
00000190: 12d2 063d bbfd f83c 228b a33d d4aa bf3d
000001a0: c5a5 a3bd d367 dfbd f6f9 f0bd 220a f63d
000001b0: d020 2ebe 892f a6bd 36d9 afbc f1e1 2ebe
000001c0: 4640 55bd c9c9 6dbe 81c7 7fbd 6c7d 8dbd
000001d0: 7634 d2bd b03a 2a3d c1ce 97be d662 2cbd
000001e0: 77d5 65be 7113 8dbe affb 4f3d dc40 d03d
000001f0: 9534 b33d bb38 34bd dfdc d4bd 940b ec3b
00000200: 2557 29be 9d5c fd3d 8443 9f3d 7fdd 23be
00000210: 987a 80be e575 1e3e 8941 62bd ce68 dfbd
00000220: 9f98 043e f701 0ebe a2fb b63d f8e7 5bbd
00000230: 2e36 353e 25ab 2bbe 3b3f 073e 5cc1 663e
00000240: 296d e5bd 4995 4abc 0f6e 383e 7148 2cbe
00000250: ff48 05be f178 5cbc 3cc6 1ebe 33c5 7a3e
00000260: 6f37 12be a121 c6bd 183e aabe 7ca9 173e
00000270: 8b50 6dbe f0df 563e 746f 213d 067f 1bbe
00000280: 9130 853e 9680 cabc a29f d03d 3bc7 95bd
00000290: 9108 98bd f4fd 033e 54f6 29bd 37a9 1ebe
000002a0: 9c84 babd 8d7f 08bd 00f1 653d 9ec9 a7bd
000002b0: f714 d7bd ccaf f03d 7d7c 67bd 70b7 e3bd
000002c0: b903 483d cfa5 163e 4692 183d 74cc 01be
000002d0: 0a19 ccbd fe75 8c3c 74dd b33c 336b 093e
000002e0: b110 7a3c 209e f23b bf32 23bd f6e2 bfbd
000002f0: cf64 d1bd 10c5 1c3d f75b 1abd 49ba 6f3d
00000300: be1a 043c 658e f23d ad02 5dbd 72d2 29be
00000310: feaf 893d f921 4e3e 5f8b 26be bd11 3f3c
00000320: 6d64 cebc c3fb 233d 5941 2ebe e63c 433e
00000330: 41be f13d 09cd d93d bacb ee3d 10eb 1b3e
00000340: 0b40 6cbd 5967 123d 8171 2bbe ba40 eb3d
00000350: 007e fc3d ed58 ea3d 8fd8 163e fdaa f2bd
00000360: 964b 763e 7da5 033e d997 143e 70b1 85bd
00000370: ffc7 163d 6e35 13bd 616e d73d 354d 5b3b
00000380: 8199 513d 7697 5e3d a9fe cf3d 7c2a 3abe
00000390: b43e 85be 216f 0bbe a182 01be 3d4e 89bd
000003a0: 0212 ab3b 688b 55bd afdd 093e 3ed2 0cbd
000003b0: d76b ccbd 8c0f 88bc e5ec 193e 60cb 2fbe
000003c0: b8ad c33c 23f4 ec3b a848 e53c bee6 2ebe
000003d0: d3d8 9a3d 175a 00bd 9be6 453e d3ac 6dbe
000003e0: 6e90 4e3d 56be 173c 83ad 0d3c 86ad 33be
000003f0: 2f88 c9bd 9879 7abd e628 4c3c 222a 383d
-0.08125316 -0.031167455 0.044447247 0.056145407 -0.18159792 -0.06729893 -0.14502142 -0.000103924154
-0.00050717284 0.118890874 0.015492008 -0.06932436 0.020601198 0.013538252 0.006205377 -0.045299605
0.05825186 0.00025583833 -0.02406258 0.19373263 -0.031261772 0.0070148823 -0.13397235 0.057419274
-0.14656922 0.086247995 -0.030319244 -0.14683165 -0.010679497 -0.18787296 -0.1561955 0.030691272
-0.012336227 0.04926636 -0.24877831 0.0943145 0.12055579 0.1202516 0.17785591 0.108972624
0.065814056 -0.21929613 0.033026475 0.08139841 0.034347497 0.028362934 0.13247244 -0.101789445
0.077159315 0.11209616 0.051743735 -0.053202532 0.03751048 -0.15015125 0.07139313 0.04521882
0.060553502 0.0016048182 0.12097998 0.0033097055 0.046942532 0.090103775 -0.11529313 0.114644624
0.059379995 -0.012857802 -0.11725401 0.13751261 -0.122669786 0.1451974 0.007363671 -0.19279534
0.017922742 0.012880844 0.087166704 -0.09417647 -0.2544181 -0.013519933 0.17197129 0.14411971
0.07359038 0.086468466 0.00988764 -0.062378112 -0.13214871 -0.16629252 -0.028003039 0.07681052
0.030300168 0.10984461 0.011434797 -0.1691983 -0.2030208 -0.20913121 0.05310162 -0.06330649
-0.10108235 0.04034393 0.016311642 0.03542507 0.032915182 0.030394426 0.07985522 0.09358755
-0.079906024 -0.10908475 -0.11766426 0.120136514 -0.17004704 -0.08114535 -0.021465879 -0.17078377
-0.05206325 -0.23221506 -0.06244612 -0.06908688 -0.102639124 0.041559875 -0.29649928 -0.042086445
-0.22444712 -0.27553895 0.050777134 0.10168621 0.087502636 -0.043999415 -0.1039369 0.0072035287
-0.16537149 0.1237118 0.077765495 -0.16002463 -0.25093532 0.1547466 -0.05523828 -0.10908662
0.12948845 -0.13867937 0.08934714 -0.05368802 0.17696449 -0.16764505 0.13207714 0.22534698
-0.11202461 -0.012364694 0.18010734 -0.16824509 -0.13016127 -0.013456569 -0.15505308 0.24489288
-0.14278959 -0.09674383 -0.332505 0.14810747 -0.23175256 0.20983863 0.03941293 -0.15185174
0.26013616 -0.024719518 0.101866975 -0.07313391 -0.07423509 0.12889844 -0.041494682 -0.15494238
-0.091073245 -0.033324767 0.05613804 -0.08192752 -0.105020456 0.117522806 -0.056515206 -0.11118972
0.048831675 0.14711688 0.037248872 -0.12675649 -0.09965713 0.017146107 0.021956183 0.134198
0.015262769 0.007404104 -0.039843317 -0.09369461 -0.10224306 0.03827387 -0.03768536 0.058527265
0.008063016 0.11843566 -0.05395763 -0.16584185 0.06723021 0.20130147 -0.16264103 0.011661944
-0.025194371 0.04003502 -0.17017116 0.190662 0.11803866 0.106348105 0.116599515 0.15226388
-0.057678264 0.03574309 -0.16742517 0.11486955 0.1232872 0.114427425 0.14731048 -0.1184902
0.24052271 0.12856098 0.1451105 -0.06527984 0.036811825 -0.035939626 0.105191 0.0033462767
0.051171783 0.054343663 0.101559944 -0.18180269 -0.260244 -0.13616611 -0.12647487 -0.06704376
0.0052206526 -0.0521349 0.13463472 -0.03438019 -0.09981506 -0.016608976 0.15031774 -0.17167425
0.023886546 0.007231252 0.027988747 -0.17080209 0.07560887 -0.031335916 0.1932625 -0.23210458
0.050430708 0.009261688 0.008647325 -0.17546663 -0.09840428 -0.061151117 0.012460923 0.044962056

f7.bias f4 [10]
00000000: 136d eabb 9a2e 2cbe 2bb1 853d 3341 dd3d
00000010: d8a4 0abe ae33 d6bd 3e2c 283e 581e 56bd
00000020: 8b9e 863e d240 c0be
-0.007154116 -0.16814652 0.06527933 0.108034514 -0.13539445 -0.10459076 0.16423127 -0.05227503
0.26292834 -0.37549454
