LeNet/weight/best_model.pth (torch, 249799 bytes, 10 tensors)

c1.weight f4 [6, 1, 5, 5]
00000000: cfeb 963f c50f df3f 8f76 a63f 2f79 2e3e
00000010: 98f8 183e 5eba a53f e487 8640 378f a840
00000020: 161e 3640 6b09 f13e d7dd 243e 83a8 af3f
00000030: e450 6040 fdab 0240 eeaf 0d3e e014 f2be
00000040: 133f 37be 5dee 42be a30f 59bb 164d ba3e
00000050: 60aa 46bf ea48 52bf e6c5 02bf 8e48 0fbf
00000060: a2c2 8abe 7ddb 22bf cb4f cfbe 8b34 d9be
00000070: 142c 89bf d4ca 83bf 7155 e73d f700 3e3f
00000080: 474b 4b3f 6428 49bd b961 38bf d125 4f3e
00000090: 7522 f53f 7c35 3040 67bf 373f 80a5 eebe
000000a0: 3fed bcbe 2160 1f3f decd a03f 3227 483f
000000b0: c979 0fbe d0c2 47bf cb69 17bf eace a43e
000000c0: b90b 6d3d 7829 9fbe 9957 f5be ceef a9bf
000000d0: ed76 ddbf fe69 6abf 81ef 06bf b2f2 7e3f
000000e0: 8c37 893f d5d2 e73e 82e0 953e 5638 323e
000000f0: 4548 d43f 3f1b b940 e99e c440 72dd 1c40
00000100: 4f02 343f 62e6 b93e 3b5e f43f 69c3 7f40
00000110: 6aa5 d13f e0b1 c53e e22d 2bbf fe02 8cbf
00000120: 8c6a 34bf a7fe 63be fcad c53c 699a 023f
00000130: 54a1 043f 82a7 03be 0c28 70bf 4d13 debe
00000140: 7ff5 4c3f 1840 1f3f 6c12 7c3d 3302 65bf
00000150: a1fd 1bbf 1155 2e3f 3716 643f 85b8 d53d
00000160: ab8c 70bf 0340 38bf b8ea f83e 786d 483f
00000170: 0a06 b4bd b6e7 7dbf ca5f fdbe b4a7 9c3e
00000180: cbd7 c53e 154a 47be ce11 2bbf ecce fdbe
00000190: 8a30 a9be ff05 4f3f 3a86 e03e f761 54bf
000001a0: 43e0 1cbf 3773 bebe 6ffb 8d3f 330b 013f
000001b0: a856 45bf d182 f4be eae4 8abe 9db8 963f
000001c0: 9f65 7e3f 6d66 cdbe a3bd 00bf e9a3 cabe
000001d0: 4d9a a43f e178 a03f f895 01be 19a5 77be
000001e0: 45b5 2dbf 4cd0 d23e e234 7a3f fd1e 15bd
000001f0: 4bb9 1b3d 6bb4 9e3e 8647 8b3f 61db 9a3e
00000200: 3267 31bf de71 04bf cd88 e83e ca37 d53f
00000210: b25a 433f 0a7d c1be 0ac3 69be 71cf fcbd
00000220: d48c aa3f 95bf bf3e 3638 d8be 8af1 2cbf
00000230: 302a 4ebe 1156 893f c3b4 3ebd efcf 2abf
00000240: cd7f 35bf 1935 30bf c09a e63e e4ed cbbe
00000250: 41df 9dbf 2ccd 4dbf
1.1790713 1.7426687 1.3004931 0.17038415 0.14938581 1.29475 4.204088 5.2674823
2.8455863 0.47077498 0.1610025 1.3723301 3.5049372 2.0417473 0.13836643 -0.4728155
-0.17895155 -0.19036241 -0.0033120892 0.36386937 -0.7760372 -0.8214251 -0.5108322 -0.55970085
-0.27101618 -0.6361616 -0.40490565 -0.424229 -1.0716577 -1.0296273 0.112955935 0.7422022
0.7941174 -0.049110785 -0.7202411 0.2022927 1.915114 2.7532644 0.7177643 -0.4661064
-0.36899754 0.62256056 1.2562826 0.7818481 -0.14011301 -0.78031635 -0.591458 0.32189113
0.057872508 -0.31086326 -0.47918394 -1.3276308 -1.7301918 -0.9156798 -0.52709204 0.99589074
1.0720077 0.4527804 0.29272848 0.17404303 1.6584555 5.784576 6.144398 2.451016
0.7031602 0.3630858 1.9091257 3.996302 1.6378605 0.3861227 -0.66866887 -1.0938413
-0.7047508 -0.22265111 0.024130814 0.5101686 0.5180867 -0.12856868 -0.93811107 -0.433741
0.800621 0.62207174 0.061541006 -0.8945648 -0.6093388 0.6809855 0.890964 0.10435585
-0.9396464 -0.71972674 0.48616576 0.78292036 -0.08790214 -0.9918169 -0.49487144 0.30596697
0.386412 -0.19461854 -0.6682404 -0.4957193 -0.33044845 0.80868524 0.43852407 -0.8296198
-0.61279696 -0.37197277 1.1092356 0.50407714 -0.7708535 -0.47756055 -0.27127773 1.177509
0.9937381 -0.40117207 -0.5028936 -0.3957818 1.2859589 1.2536889 -0.12654865 -0.24184074
-0.6785472 0.41174543 0.9773694 -0.036406506 0.038018506 0.30997023 1.0881202 0.30245498
-0.6929809 -0.5173625 0.4541687 1.665765 0.76310265 -0.3779071 -0.22828308 -0.12344254
1.3324227 0.37450853 -0.42230386 -0.6755606 -0.20133281 1.072939 -0.046559107 -0.6672353
-0.70898134 -0.6883102 0.4503994 -0.39829934 -1.2333757 -0.8039119

c1.bias f4 [6]
00000000: fccc 06bf 8b23 00bf 2eb3 74bf 2f12 213e
00000010: acd8 21bf bdcb 9abe
-0.5265653 -0.50054234 -0.95585907 0.15729593 -0.6322124 -0.30233565

c3.weight f4 [16, 6, 5, 5]
00000000: 8442 323d 00b3 ed3b 6cdb 41be 9e06 933d
00000010: 468a d33d 90cf a4bd d93b f0bd 46ad a53d
00000020: bfc5 893e bef5 983e 460b 83bd 20a1 81bd
00000030: 074a 68bc 8a00 283e 24d0 8a3e 8e6f 09be
00000040: dd36 8dbe 7c55 febd 1afc 00be 3387 dfbd
00000050: ab0c 56bd b14f 71be 2fb5 3abe 6b5d c3be
00000060: 9d94 a3be 5e3d 89be 570b b4be 6d35 b9be
00000070: 8689 f4bd 5140 d13d 3f08 56be 6dc1 afbe
00000080: e45d d7be 2aa0 bbbd e4ab ce3d fae7 62bd
00000090: 5ac7 2fbd 0060 81be 1572 ab3c 37cf b43c
000000a0: 8eef eabd c045 b3bd db09 debd a521 e0bd
000000b0: 5f6f 4ebe 2f43 6bbd c5eb e43d ce46 33be
000000c0: 48b2 cabe cbd0 b0be 08ed b5bc f597 8cbd
000000d0: a542 413d e1ba 503e ee16 933e 046f 38bd
000000e0: e121 bcbd a131 8a3e fb35 ff3e ac6a c03e
000000f0: 454a 073c d100 09bd 87b8 663d b0d2 793d
00000100: 5be1 823d 7ce2 efbd ee64 49be 76d6 13be
00000110: 4136 74be 65e5 8bbe f101 c13c 9c5d 80bd
00000120: 4e16 c8be 75b7 27bf e15c 3abf 99e1 c73e
00000130: 4967 ea3e ef48 8d3d a82c 8ebe dd28 bdbd
00000140: 808a e63e 9dd5 ac3e 9305 01be f5b4 91be
00000150: a8a1 0e3e da04 a33e cbff 5a3e 8dc8 dfbd
00000160: 3aa2 333d eaa6 6b3e e6c6 303e 57a2 073e
00000170: b7b5 e43d 9b06 8f3e 3da6 d33e ba0f 5c3e
00000180: de43 113e 4051 a73e a392 e73e 364b c33e
00000190: 60f3 7bbe 019a c7be 8401 e1be 30d2 c3be
000001a0: cd42 593e e390 8cbe a162 9ebe 8a75 01bf
000001b0: 4bc2 c1be 47f2 453e d02a 6ebd 4309 45be
000001c0: 75aa 85be b6fc e5bd df33 323d 5c84 09be
000001d0: d92b c73b c44c e6bd a7dc dabd 9cb1 94be
000001e0: 840c 913d 26ad 273e 9138 e03d 3d48 9ebd
000001f0: de1d bdbe 6d5f 3f3e 208b d73c c205 81be
00000200: 0bfb d2be c85c feba 3cc5 08be aca6 83be
00000210: 8033 09bf 2ed1 e9be 450e 073d 485e 21be
00000220: f5d8 4ebe 16f8 e6be da69 36be 00a4 5f3e
00000230: 67d3 b6bd 3c60 2cbe 8c6c cc3c 6f4a 8a3d
00000240: dd1f 1e3e 0959 ccbd bc51 66bc 54f6 123e
00000250: 279b 813c 4cf4 823d 2d85 8dbd fcad 0ebf
00000260: 6cbf 2abf 733c d0be 3d7c 1ebd 0a55 cc3d
00000270: a69b dcbe ed24 64bf 9045 dcbe c77a 3abc
00000280: 8d2f 353e 7197 82be 5d11 e7be 75d5 57bd
00000290: 732e b6bb 80d6 8e3e e869 e03d b79d 20bc
000002a0: 6b6d b53d ea17 d53d 5173 c13e 9bd0 4e3e
000002b0: b3fa cf3d 9c53 913e ffad 383e 659a 083d
000002c0: 5a42 e6be 04e9 34bf 96cb d7be 52c5 58be
000002d0: ac72 ec3b 8ba8 b8bd 1e51 04bf b5e4 95be
000002e0: 8452 15be e47f 163c 8256 01bd 192c 46be
000002f0: 8675 81bd f7d8 b5bd 9b5f 0f3e 41ed 073e
00000300: 6e4c 3a3c f444 073e c12c 11be ca79 b93e
00000310: 5623 313e 43bf 673e c36d 7f3e 9073 ce3d
00000320: 4fa5 9abd 8401 10bf fddc 69bf 1404 e9be
00000330: 241f 42be da6a 4f3e 2389 aabe 80cd 26bf
00000340: 3e22 44be 0462 e0bd 1e5c 893e b966 8cbd
00000350: 4419 a8be 5fbe a83d 475f b73a 323b e43e
00000360: df4e 683e cbda 56bd b82e 2f3e a2ee ac3d
00000370: 4c76 a03e d761 403e c2e7 303e 18bf 733e
00000380: 3eb9 293e efcd da3b 3c0e 413e e119 86bd
00000390: 08e8 24be 3b67 41be 88ca 543c a450 723e
000003a0: 9b92 2b3d 2923 dfbd e458 62bd 91de 87bd
000003b0: 6468 7d3d fc04 0c3d a376 a13d e789 0e3e
000003c0: 2606 51be c403 0fbe c8e1 c1bd 0351 fe3d
000003d0: 9633 ab3e 95cf 70be b3af 1fbe bfb6 28be
000003e0: 762e d63d 15a0 093f 3613 8c3d d7ad 8cbe
000003f0: 7efc ffbe b9e2 aabe a144 38be c9ef 3e3d
0.043520465 0.0072540045 -0.18931359 0.071789965 0.10329108 -0.08047402 -0.11730165 0.0808969
0.2690868 0.29874986 -0.063986346 -0.0632956 -0.014177806 0.16406456 0.27111924 -0.13421461
-0.2758092 -0.124186486 -0.12596169 -0.10914459 -0.052258175 -0.23565556 -0.18233179 -0.3815721
-0.3194932 -0.26804632 -0.35164902 -0.36173573 -0.11940293 0.102173455 -0.20901583 -0.3432726
-0.4206382 -0.09161408 0.10091379 -0.05539701 -0.042914726 -0.25268555 0.020928422 0.022071464
-0.11471473 -0.08753538 -0.108417235 -0.10943917 -0.20159672 -0.05743712 0.11177782 -0.17507479
-0.39589143 -0.34534296 -0.022207752 -0.06864921 0.047182698 0.20383789 0.2872843 -0.045027748
-0.091861494 0.2699099 0.4984587 0.37581384 0.008257453 -0.033448044 0.056328323 0.060991943
0.063906394 -0.1171312 -0.19667408 -0.14437279 -0.23848821 -0.27323452 0.023560496 -0.062678546
-0.39079517 -0.6551431 -0.7279797 0.39039305 0.45781925 0.068986766 -0.27768445 -0.0923631
0.45027542 0.33756724 -0.12599783 -0.28458372 0.13928854 0.3183964 0.2138664 -0.10926924
0.043855883 0.23012891 0.17263374 0.13245521 0.11167472 0.27934727 0.41337767 0.21490374
0.14186046 0.32679176 0.45229062 0.3814332 -0.24604559 -0.38984683 -0.4394647 -0.38246298
0.21216889 -0.2745429 -0.30934623 -0.50569975 -0.37843546 0.19330703 -0.058146298 -0.19241814
-0.2610661 -0.112298414 0.0435065 -0.13429397 0.006078225 -0.11245111 -0.10686617 -0.29041755
0.07082465 0.16374645 0.10948289 -0.07728622 -0.3693685 0.18688746 0.026311457 -0.25199705
-0.41207156 -0.0019406313 -0.13356489 -0.25713098 -0.5359421 -0.45667404 0.032972593 -0.15758622
-0.2019995 -0.4511115 -0.17813817 0.21839905 -0.089270405 -0.16833586 0.024954103 0.06752478
0.15441842 -0.099779196 -0.014057573 0.14351779 0.015821053 0.06394252 -0.06910167 -0.5573423
-0.66698337 -0.4067112 -0.0386927 0.099771574 -0.430875 -0.89118844 -0.43021822 -0.011381811
0.1769392 -0.25506166 -0.45130435 -0.052693803 -0.0055597364 0.27898026 0.109577 -0.009803227
0.088587604 0.10404952 0.37783292 0.20196764 0.10155239 0.283841 0.18035124 0.033350367
-0.44972497 -0.70668054 -0.4214751 -0.21169022 0.0072158184 -0.09016522 -0.51686275 -0.29276052
-0.14582258 0.009185765 -0.03157664 -0.1935276 -0.06321244 -0.088792734 0.14001314 0.13274099
0.011370761 0.13209897 -0.14177229 0.3622573 0.17298636 0.22631554 0.24944215 0.100806355
-0.07551061 -0.5625231 -0.91352826 -0.45510924 -0.18957192 0.20255604 -0.33307752 -0.6515732
-0.19153687 -0.10956195 0.26828092 -0.0685553 -0.32831776 0.082394354 0.0013990187 0.44576412
0.22686337 -0.05245475 0.17107666 0.08443953 0.31340253 0.18787323 0.17275909 0.23803365
0.1657457 0.006677381 0.18853086 -0.06547905 -0.16104138 -0.18887036 0.01298774 0.23663574
0.04188786 -0.10895378 -0.055260554 -0.06634248 0.061867133 0.03418444 0.07883956 0.13919793
-0.20412502 -0.1396628 -0.094668925 0.124177955 0.33437794 -0.23516686 -0.15594368 -0.16475962
0.104580805 0.5375989 0.06839602 -0.2747638 -0.49997324 -0.333761 -0.1799493 0.046615396

c3.bias f4 [16]
00000000: 211a 4b3e 02e0 a7bd bdd7 21bc 507d c53c
00000010: 42ff 51be 5eff 353d 0950 cbbd 349b dc3d
00000020: 21bc db3d f9a6 b0bd fe6e d4bd e73c 79be
00000030: 7427 d03c f8c8 3d3e 3fee a3bd 9dc4 7d3e
0.19834186 -0.08197023 -0.009878096 0.024107605 -0.2050753 0.04443299 -0.09927375 0.1077179
0.10729242 -0.086255975 -0.103727326 -0.24339639 0.025409438 0.18533695 -0.08004426 0.24782033

f5.weight f4 [120, 400]
00000000: 62d4 b9bd 1486 9fbc b2ca 11be 12ad 80bd
00000010: ecfc 4cbe 6ba8 6ebd c34a 8b3d 0803 e13c
00000020: 60da f5bc ed05 a93d 1c61 58be edd1 89be
00000030: 37e7 0bbe 0837 363d ad28 e33e 5cac c9bd
00000040: 71f3 2d3e 8846 863e 89e3 133d be5a cb3d
00000050: 54dd 6a3e 4475 8f3e 4bfa 8b3e 4f1f 96bd
00000060: 9794 e03d ab35 bfbd a8c2 6a3c eb02 063d
00000070: cd6b 8fbc 1734 b8bc baf2 233e d4a3 cd3c
00000080: 947c 593e 672a 1cbe 3f3c 263e 271e dfbd
00000090: 3999 20be 83ba f43d 9693 9abe 0a3e bb3e
000000a0: 681e 1c3e 321e fabe 88db 12bd a2e7 86bd
000000b0: 66a5 bd3e 7a99 dbbd 0733 f1be 8551 03bf
000000c0: 5935 49be f24e c6be 35fc 91bd 2661 1fbe
000000d0: f283 febd e02e 233e 2154 673d 64fa 3ebd
000000e0: dd47 21be 301a 56be 61ac 2a3e 9ae5 d2bc
000000f0: 3c77 35bd 294d 0abe d666 013e 1b92 103d
00000100: 80bc 2a3d 450d 9ebc caed ce3d 132c 253e
00000110: 0b7d 87be 7d7a f53c 9fe2 be3e 5dd8 4c3e
00000120: 5838 cd3e 8dd3 3b3e ca13 1d3d 972c 293d
00000130: e071 143e 3a84 013e a920 2fbe 4340 273d
00000140: 802e f0bb 48d0 e4bd c572 99bd ba55 843e
00000150: 68b1 8dbd d1e6 b8be c90a c1be 8ea9 36be
00000160: 081f 273e 44f2 52be b81a de3b a29c b7bd
00000170: 7802 0c3e bcc6 49be c0e3 40bd 2914 833e
00000180: 1ab0 36bd 7b14 1bbd adc3 52bd 0ab0 223e
00000190: 9da7 793c 1a36 e23d 8adf cb3d 52a3 0fbe
000001a0: 060a 22bc 09ad e13c 88a7 e9bd 1148 ff3b
000001b0: e34b 87bc a412 013e 6c8c 1c3c 6a56 96be
000001c0: e958 dbbd 6fed eb3d f5a1 8abd e28c aa3c
000001d0: 9c34 0ebe 377d 94bc 3408 d5bd f24e 1cbe
000001e0: 2b03 2e3d 4e82 c53e d147 703e 8554 003e
000001f0: 0ab9 e93c 8b75 103e 3c86 3a3e e99b 033e
00000200: 18e5 a13c 3f6f 103d 0ac2 0cbe a5fe 5dbe
00000210: d2ec 8bbd 9729 b3bd 663e c93d f372 e1bd
00000220: 4e28 a2bc a9df 6bbd 9b2a 8bbe a82b 38be
00000230: 2824 6bbd b8db 1dbe 9339 06be f03c adbd
00000240: c2fd 89be 6a52 a63e 2119 acbd adcf a73e
00000250: fdde ebbe 57b8 03bf 0982 113d 429c c53d
00000260: e194 e73c ba9d 84bd 0bf3 063c 31c3 983c
00000270: 1924 8c3d a9d4 b4bc dc5c 493d 7ca6 073d
00000280: 6e51 4f3d 29a4 1b3d b35f 073d 9e15 883d
00000290: 8274 49bd c3fc c4ba 5046 9abc 4137 8e3d
000002a0: d87e 6c3d 4da3 02be e1c6 97bd c073 9b3d
000002b0: fda9 8e3d 88b3 af3b 0efc 96ba 1cd6 4bbe
000002c0: c247 923d 4767 133e 3332 6bbd bd06 503d
000002d0: 2021 f5bb d442 6bbb f5f7 4abe 5963 983d
000002e0: 9e70 94bc 472d ae3d ce3a 223e b52b 7e3e
000002f0: 0893 643d f5dd 883d 2fe3 243d 6fd5 dabd
00000300: ed36 69be bbdd 36be 1124 8bbd 8753 953d
00000310: 84d2 f13d d93a 45be 5531 293e acbe 3e3e
00000320: c7df 6abd 29e5 c03d f252 0b3e 5ec0 e3bd
00000330: 40ba 543e 0e37 3a3c d957 753b 2fb2 983e
00000340: 8fcc 923e 95cf 3b3e 5ca4 653d b797 5ebd
00000350: 6282 e63d 0c95 f33e 0437 283d efa4 0dbe
00000360: ebee 62bd 4b0c 72bd 7672 863e 0be0 09be
00000370: a2cf fdbd 2f7e 2e3e facf 3bbb bd82 6f3d
00000380: 2a21 5cbe d7f2 d33d 1af6 1d3e cd79 183c
00000390: 8ec3 76be 727f 61bc b1f5 c93d 9af6 3b3e
000003a0: c691 c13d 35df 7f3e a715 e7bb dc35 bfbd
000003b0: 6ffe 483d c7f8 4a3e 24bb dc3d e3a7 04be
000003c0: 9ff1 efbc a16a 8a3d 3489 2fbe ee5a 16be
000003d0: 7e9d 1a3e f9da ad3d 5902 083e 9dbb b8be
000003e0: 1929 efbb a396 9e3e eb2c 23be 056e 6ebe
000003f0: 0a8e 7e3d fd9d a43c 1cc5 02bd b14d 0e3e
-0.09073712 -0.019473113 -0.14237478 -0.062830105 -0.20018357 -0.058266085 0.06801369 0.027467266
-0.030011356 0.082530834 -0.21130794 -0.26917973 -0.1366242 0.044486076 0.4436697 -0.09847328
0.16987397 0.26225686 0.036105666 0.09929417 0.22935992 0.28019154 0.27339396 -0.073301904
0.10965841 -0.09336408 0.014328636 0.032717627 -0.017507458 -0.022485776 0.16010562 0.025102533
0.21238929 -0.1525055 0.1623392 -0.10894423 -0.1568345 0.11949637 -0.30190724 0.3657077
0.15245974 -0.48851162 -0.035853893 -0.06587149 0.37040251 -0.10722633 -0.47109243 -0.51296264
-0.19649257 -0.38732105 -0.07128183 -0.15564403 -0.1242751 0.1593585 0.056476716 -0.04662551
-0.1575007 -0.20908427 0.1666732 -0.025744248 -0.044303164 -0.13505997 0.12636885 0.035295587
0.041683674 -0.019293437 0.101039484 0.16130094 -0.26462588 0.029965634 0.37282273 0.20004411
0.4008205 0.18342419 0.03834895 0.04130229 0.14496565 0.12648097 -0.17102303 0.04083277
-0.007329762 -0.11172539 -0.07492594 0.25846654 -0.06918603 -0.361136 -0.3770354 -0.17838117
0.16320431 -0.2060023 0.0067780875 -0.08965422 0.13672817 -0.19704717 -0.0470922 0.25601318
-0.044601537 -0.03786133 -0.051456142 0.15887466 0.015237716 0.11045475 0.09954746 -0.14027146
-0.009890085 0.02754833 -0.11408907 0.0077905734 -0.016515678 0.12604767 0.009554964 -0.29362804
-0.10710318 0.11519896 -0.06769172 0.020819131 -0.13887256 -0.018126113 -0.10401955 -0.1526449
0.04248349 0.38575977 0.23464896 0.12532242 0.028530616 0.14107339 0.18215269 0.12852444
0.01976256 0.035262343 -0.13745895 -0.2167917 -0.06832279 -0.08748167 0.09826355 -0.11008253
-0.01979461 -0.057586346 -0.27180943 -0.17985404 -0.05740753 -0.15415847 -0.131079 -0.084588885
-0.26951414 0.32484752 -0.084032305 0.32775632 -0.46068564 -0.51453155 0.0355244 0.096489444
0.028269233 -0.064753965 0.008236657 0.018647762 0.068428226 -0.02207406 0.049160823 0.033117756
0.050614767 0.037998352 0.03305025 0.06644748 -0.049183376 -0.0015028942 -0.018832356 0.069441326
0.057738155 -0.12757607 -0.0741098 0.07590437 0.069660164 0.005361978 -0.001151921 -0.19905895
0.07142593 0.14394866 -0.05742092 0.050787676 -0.0074807554 -0.0035897987 -0.1982115 0.07440824
-0.018120106 0.0850473 0.15842745 0.2482136 0.055804282 0.0668296 0.04025572 -0.106852405
-0.22774859 -0.17858021 -0.067939885 0.07291322 0.11807731 -0.1926073 0.16522725 0.18627423
-0.057342317 0.09418709 0.1360586 -0.111206755 0.20774174 0.011365665 0.0037436394 0.29823443
0.2867169 0.18340905 0.05606495 -0.054343905 0.11255337 0.4757465 0.041068092 -0.13832448
-0.05540363 -0.059093755 0.26259202 -0.13464372 -0.123931184 0.17040323 -0.00286579 0.05847429
-0.21497026 0.103490524 0.15425912 0.009306383 -0.24098036 -0.0137632955 0.09861315 0.1835579
0.09451632 0.2498749 -0.0070521417 -0.09336445 0.04907077 0.19821464 0.10777882 -0.12954669
-0.029290019 0.06758619 -0.17142183 -0.14683124 0.15099141 0.08489031 0.13282146 -0.36080638
-0.0072986004 0.30974302 -0.15935104 -0.23284157 0.062147178 0.020094866 -0.03192626 0.13896824

f5.bias f4 [120]
00000000: fc1d 55bc c588 5c3e d5e4 06bd 31c3 babd
00000010: 13c4 4abe 3ba5 0bbd 1d59 0fbc a61c e6bc
00000020: e28c e9bd d534 f43d e584 1fbd 3241 153e
00000030: 8516 a33c 7970 b6bd 019e 2dbe 182b 7d3d
00000040: e6be 20be 23e2 5dbd e4f2 e23d d6e9 e3bd
00000050: 1e26 e0bd 06d6 983d 5516 fabc ab60 803d
00000060: f50d 05be 871b 0fbe 8670 34be 4696 033e
00000070: 94c3 3bbe df4c 0e3d 0eeb bebd c2b2 54be
00000080: fbf3 233d f585 693d aca7 3c3e 046f b5bd
00000090: 51be 11bc ae73 99bc 90ed 3dbe 3ab2 293e
000000a0: ca4a 0abc 0f7d a43c 4b68 1d3e 53bd fd3d
000000b0: 395f a2bc 2d21 b83d 11aa 37be 53e1 67be
000000c0: f10d 1a3e 13bf 10be fb5e ed3d 7e05 943c
000000d0: 60d0 5a3e 1a17 243e f1ae b7bd 4e05 113d
000000e0: a037 29be 1abc ea3d b97e cb3d a88a f1bb
000000f0: 4cb4 28bd 8597 21be 19bf 143e d105 7abe
00000100: c75e b6bc 80e4 a63c dd22 59be 14c6 0e3c
00000110: 26b2 57be e571 76bc 278f 53be 7730 a33d
00000120: 84c0 0b3e 8dab fcbd d9a7 5fbe 1fa5 6c3c
00000130: 8e2c 11be 5384 ed3d 9e9d 9e3d b745 1f3c
00000140: 00bb 413e 2d4b b7bd 01eb 91bd d273 cabd
00000150: 0dba 303e 559c 0b3d 6597 bb3d 8925 8bbd
00000160: aac7 4b3d 4705 b9bd 1ec6 473e af21 aebd
00000170: 994a c8bd 695f 2fbe 260d a83c 175b 8e3e
00000180: e9b1 2d3e 7edd c2bd 3415 dfbc 4506 573d
00000190: 8a3f b43c e194 86bd 1140 b1bc 9e43 1bbc
000001a0: 068b 84bb f6b0 21bd 7f7f 8abd 5650 633d
000001b0: 927d b8bd 0557 5c3d 173b e0bd 978f 273d
000001c0: b66c 80bd 0652 9dbd 10b5 133e 11e4 a53d
000001d0: 925c b3bd d82b 8cbc 24de 2c3c 76b1 253e
-0.013007637 0.21536548 -0.032933075 -0.09119261 -0.19801359 -0.034093123 -0.008749274 -0.028089833
-0.114038244 0.119241394 -0.038945097 0.14575651 0.0199082 -0.08908171 -0.16954805 0.061808676
-0.15697822 -0.05417074 0.11081484 -0.11128585 -0.1094477 0.07462697 -0.030528227 0.06268438
-0.12993605 -0.13975345 -0.1762105 0.12850294 -0.18336326 0.03474128 -0.09322177 -0.20771316
0.0400276 0.057012517 0.18423337 -0.08859065 -0.008895473 -0.018731918 -0.18547654 0.16571894
-0.008440683 0.020079164 0.15371816 0.12389626 -0.019820796 0.08990703 -0.17935969 -0.22644548
0.1504438 -0.14135389 0.11590382 0.018069025 0.21368551 0.16024438 -0.08968914 0.03540545
-0.16525126 0.11461659 0.0993628 -0.0073712654 -0.04118757 -0.15780456 0.14526023 -0.24416281
-0.02226199 0.02037263 -0.21204706 0.008714218 -0.21064052 -0.015041803 -0.20660077 0.07968228
0.13647658 -0.12337408 -0.21841373 0.014443665 -0.14177153 0.115975045 0.07744907 0.009721211
0.18918991 -0.089498855 -0.071249016 -0.09885372 0.17258473 0.034084637 0.091597356 -0.06794269
0.04975096 -0.0903421 0.1950917 -0.085025184 -0.097798534 -0.1712624 0.020514082 0.2780387
0.16962399 -0.095149025 -0.02723179 0.052496213 0.022002954 -0.06571365 -0.021636995 -0.00947657
-0.004044893 -0.039475404 -0.06762599 0.055496536 -0.09008326 0.053793926 -0.109487705 0.040908422
-0.06270735 -0.0768166 0.14424539 0.08100141 -0.08757891 -0.01711075 0.010551009 0.16180977

f6.weight f4 [84, 120]
00000000: 083f afbd 5282 2c3d bd49 a5bc 855d c0bd
00000010: 6015 7cbd 868f 3a3e 421f aa3d 6ae2 5a3d
00000020: 520e 1f3d 1e66 653d d82f e3b9 5b23 1c3e
00000030: d755 a43c e05c 82bd 1981 edbc ce00 8ebb
00000040: 0adf 9f3c aa92 28b9 24ed 5dbd 203e d9bd
00000050: 7a4c 1e3b ebc8 ca3c 588f 3a3e b632 253e
00000060: cac2 0a3e 9434 bf3d e66b 853d c9a7 0abe
00000070: 65d9 5a3d 4ccd 40bd 3b56 083c aac3 5c3d
00000080: 5391 b9bd 8cfb 883d 29d2 a23d 6458 95bd
00000090: 8f68 debd 0178 093d 72e6 96bd 4398 85bd
000000a0: 15a8 93bd bcbc 55bd 5447 293c c834 24bd
000000b0: f05d ab3d 4dd4 c03d 4e30 293e 97a8 a63d
000000c0: d50a 863d 3190 07bc c91f 253c 8502 613c
000000d0: c3e5 493d df02 073e 3c4a 983c c02e ae3d
000000e0: bcba 003c 9dc5 bc3c 0456 283c f132 803b
000000f0: 0eea b9bc 5708 b83d 062c e83b 77b8 d2ba
00000100: 35b4 bdbd de42 d7bb baca 96bd 9d0e 6dbd
00000110: b541 4ebb 54dd c73c 9ac4 073a 9c38 a4bd
00000120: ff94 f93d 2d92 6e3d 13cf 87bc 5dd7 69bd
00000130: 0c04 1d3e 903b 123d 5bb3 39bd 57e4 8fbd
00000140: 10b5 26be 4b80 663d 8926 dabd cd5a 82bc
00000150: a6f1 1abd 22a0 b13d 7029 e4bd d2fd 3b3e
00000160: 9f19 79bd 0b5e 9a3b a27b 8a3c b0b9 0abe
00000170: 8153 3cbd 0998 5e3d 12b1 503d f6b5 d73d
00000180: 8199 cebc 3d2f ec3d 8c76 1ebd 22d8 debd
00000190: 7ddb 2b3c d1e7 333e 0f8e a33d 6eb2 9c3d
000001a0: a2b7 3ebd 7aac 05bd 8f68 663d cd2a b5bd
000001b0: 0bb7 853d 4d25 8a3d d7d4 dfbc 3969 90bd
000001c0: 2978 813d 2e1a 0a3e 0ccf b13d c703 0fbb
000001d0: 1848 81bd ad4f a63c e05d babc 28e5 293e
000001e0: b394 8cbd 03a5 06be 0b37 123d 3c16 a63d
000001f0: 27ec 31be 32c1 033e 604d c7bc 6323 4bbb
00000200: 21ee afbb 919d 113e 424a 863d fd82 b4bd
00000210: 3c22 853d b130 ad3c 304f 613a 4c08 8e3d
00000220: d88c 4dbd 97cf d33d fe5f d93d 6caa a5bb
00000230: c207 dabd 5b64 e23d 3618 553e b962 dd3b
00000240: 3305 c2bb 1df5 9e3d dea6 d8bd 612c 82be
00000250: 9972 293e 25f1 e3bd 2357 c4bc 61d0 553d
00000260: 431c df3c f87b 723e 5275 223c 43ac bbbb
00000270: f464 483e 95e9 0fbe 2405 bebc 53f8 e4bc
00000280: 531b 233d 24ba 09be 412d 39bd c180 d1bc
00000290: 87a5 1a3d 8f31 70bc 759a 4f3e eca0 3fbd
000002a0: 6cf7 243e 844a 88bd 6291 4fbb 9e5c 9f3d
000002b0: f602 fe3c 7203 dbba 8849 153e 1958 763d
000002c0: a799 033d e698 4fbe a4b1 debd 0c57 45bd
000002d0: 9912 a13d d6e3 04bd 7ed0 703d f0bd 083d
000002e0: ef13 07be 03ab e1bb 36d1 143c e297 a63b
000002f0: 9dcb ac3d f6f2 103c ae5f b83d 6899 3dbe
00000300: 23c8 013e 6dc4 02be 9523 87bd e535 46bd
00000310: 8e37 8e3d 62ef 763d 8bad 5f3d 2fb0 c2bd
00000320: 79c0 83be c62e aebd 8c63 9d3b aa53 6d3d
00000330: 0cc7 85bd 488a 083d 09bb 27bb d871 8fbc
00000340: 7a76 b93d bf52 be3c aae9 35bd 4855 e9bd
00000350: 45a7 703d 4864 bbbd 8c6e 643d 1c50 433d
00000360: 03da 7f3e b961 6abc 423c 963d 8491 99bd
00000370: 3420 6ebd d6ea d93d d475 db3d 5003 153d
00000380: 87f5 d1bd e3a1 bbbc ea88 0b3c accd 1d3d
00000390: 154e 22be adaf a23d b330 8cbd edd3 55bd
000003a0: 04d6 94bd 2346 b2bc 4317 5a3b 2c05 e33c
000003b0: e057 003d 480e e63c ac99 9abc 3a54 483e
000003c0: 28c4 e03c 487a 0abe 81c1 6c3e a528 ff3a
000003d0: 1e06 59bd eb95 373e 77ca 24bd d50b b33d
000003e0: 6460 063d 6f9a c3bc 8555 103e 4ed2 bb3d
000003f0: 265c 573c 6713 e33c b5e0 74bc 9f03 2bbd
-0.08556944 0.04211647 -0.020176763 -0.093928374 -0.061543822 0.18218812 0.08306743 0.05343858
0.038832016 0.05600559 -0.0004333246 0.15247862 0.020060463 -0.06365371 -0.028992223 -0.004333592
0.019515533 -0.00016076365 -0.054181233 -0.106075525 0.002415447 0.024754008 0.18218744 0.16132626
0.13550869 0.093362 0.065147206 -0.13540567 0.05342998 -0.047070786 0.00832134 0.053897537
-0.090609215 0.06688604 0.07950241 -0.0729225 -0.10859787 0.03356171 -0.07368173 -0.06523182
-0.072097935 -0.052181944 0.010331947 -0.0400894 0.083675265 0.09415493 0.16522333 0.08137625
0.06545035 -0.008274124 0.010078379 0.013733511 0.049291383 0.13184689 0.018590085 0.085050106
0.007857021 0.023043448 0.010274414 0.0039123227 -0.022694614 0.08985966 0.007085326 -0.0016076703
-0.092628874 -0.0065692505 -0.07362886 -0.057875264 -0.003147227 0.02439753 0.0005179137 -0.0801861
0.12186622 0.058244873 -0.016578233 -0.057090152 0.15333575 0.035701334 -0.045337062 -0.07025974
-0.16280007 0.056274693 -0.10651881 -0.015912438 -0.03782811 0.08673121 -0.11140716 0.18358544
-0.06081545 0.004710918 0.016904656 -0.13547397 -0.045978073 0.05434421 0.050950117 0.10532753
-0.02521968 0.115324475 -0.038687274 -0.10881068 0.010489342 0.175689 0.0798608 0.0765122
-0.046561845 -0.03263519 0.05625206 -0.08846054 0.06529053 0.06745396 -0.02732317 -0.0705132
0.06321747 0.1348655 0.08682069 -0.002182232 -0.06312579 0.020301664 -0.022749841 0.16591322
-0.068642996 -0.13148884 0.035697024 0.081097096 -0.17375241 0.12866667 -0.024328887 -0.0030996434
-0.0053689633 0.14220263 0.06557132 -0.088140465 0.0650067 0.021141382 0.00085948687 0.06935176
-0.050183147 0.10342329 0.10614012 -0.0050557163 -0.10646011 0.110542975 0.20810017 0.0067561534
-0.00592103 0.077615954 -0.105787024 -0.25424483 0.16547622 -0.11129979 -0.023967331 0.05220068
0.027235156 0.23680103 0.009915667 -0.0057273223 0.1956976 -0.14053948 -0.02319581 -0.027950441
0.03982098 -0.13449913 -0.045209173 -0.02557409 0.037755515 -0.014660253 0.20273764 -0.046784326
0.16110009 -0.06654838 -0.0031672348 0.07781337 0.031007271 -0.0016709401 0.14578831 0.06014261
0.032128956 -0.2027317 -0.10873726 -0.048178717 0.07864875 -0.032443844 0.058792584 0.033384264
-0.13191198 -0.0068868413 0.009083083 0.005084024 0.08437274 0.008846989 0.090026245 -0.18515551
0.12674002 -0.12770243 -0.065985836 -0.04839124 0.0694419 0.060286887 0.054608863 -0.095062606
-0.25732782 -0.08505015 0.0048031267 0.057941116 -0.06532106 0.033335 -0.002559366 -0.01751034
0.09055801 0.023232816 -0.044412293 -0.11393219 0.05875327 -0.091499865 0.05576949 0.04768382
0.24985509 -0.014305525 0.07335712 -0.07498458 -0.05813618 0.106404945 0.10715833 0.036380112
-0.10251909 -0.022904342 0.00851653 0.038526222 -0.15850098 0.07943664 -0.06845226 -0.05220406
-0.07267383 -0.02176196 0.0033278025 0.027712427 0.031333804 0.028082982 -0.018872105 0.1956338
0.027437285 -0.13523209 0.23120691 0.0019467069 -0.05298435 0.17928283 -0.040232148 0.08742491
0.03280677 -0.02387735 0.14095123 0.09170972 0.0131445285 0.027719213 -0.014946152 -0.0417515

f6.bias f4 [84]
00000000: f695 9d3d 1495 343c 3660 f4bc 1796 4cbe
00000010: a8c2 98bd ccff abba 3259 d7bd 0102 aebd
00000020: 4908 203e a7b6 793e 4aaf 843d 6101 a0bc
00000030: 5e65 a7bd a485 32bd 7c0a 523b a609 7a3e
00000040: 8e5e 413d 03bc c33d 2298 4abd 30fc 523d
00000050: bdc7 b6bd 15e3 483e 19b1 5a3d 97f7 28bd
00000060: 84c6 cebc 55d1 ac3e 52a3 533d f224 debd
00000070: 60cd 033d defc 063e 21a7 84bc 6525 a1bd
00000080: d5b7 5b39 eeed 833c cddd 3a3c 3a70 763e
00000090: 5490 893e 2895 9a3e 85ee 8a3d 058e 8e3e
000000a0: d427 963b 8523 3f3e 26cd 06be 08ce 513e
000000b0: 6a0f 343e 6bb2 71be e651 3c3d 4981 433d
000000c0: 5e52 373e fcfb b7bb df1a 803e 686b b73d
000000d0: 8512 0fbe 23ca 9d3c 35d3 b43d a3c9 a3bd
000000e0: d2e1 11be 1e87 463b 2ce1 89bd 08f1 83be
000000f0: 2523 b1bd aefa eabd 4f34 c7bd d30e ed3b
00000100: 7c1f 63bd c94a 70bd 5100 e43d fee5 14be
00000110: 520b 1e3e 9009 4e3e 42a4 013e 7e1b a8be
00000120: d16c 3b3e 89c0 bcbd 9334 0c3c 7f84 6fbd
00000130: 7cf7 53be 8e16 47bd dbba af3e 36b3 ac3c
00000140: 968e b03d 618a 2f3c 6d4c 8dbd 14fc 1ebb
0.076946184 0.011021871 -0.029831033 -0.1997913 -0.07459003 -0.0013122498 -0.105150595 -0.08496476
0.1562816 0.24386083 0.06478746 -0.019531908 -0.08173631 -0.04358448 0.0032049706 0.24417743
0.047209315 0.09557345 -0.04946149 0.051510036 -0.08924816 0.19617875 0.05339155 -0.041251745
-0.025241144 0.33753458 0.051669426 -0.108468905 0.032178283 0.13182399 -0.016192975 -0.078684606
0.0002095395 0.016104665 0.0114054205 0.24066249 0.26867926 0.30191922 0.06783775 0.27842727
0.0045823846 0.18665893 -0.13164195 0.20488751 0.17584005 -0.23603217 0.045976542 0.047730718
0.17902514 -0.0056147557 0.250205 0.08956033 -0.13971908 0.019261425 0.08829347 -0.079974435
-0.142463 0.0030292938 -0.06732401 -0.2576983 -0.086492814 -0.114735946 -0.09726774 0.007234433
-0.055449948 -0.05866507 0.11132873 -0.1454086 0.15434006 0.20120835 0.12660316 -0.32833475
0.18303229 -0.09216411 0.008557457 -0.058475967 -0.20699877 -0.048605494 0.34322247 0.021081548
0.08620946 0.010714144 -0.06899343 -0.0024259137

f7.weight f4 [10, 84]
00000000: 994d b2bd 55a7 99bc e36c 923d 2e52 873d
00000010: 2acc 37be 96a5 8abd d78b 1abe 6a2f 583b
00000020: dac4 a3bb 4096 dd3d da6a 653c b534 a7bd
00000030: e859 303d 507c 52ba 32dc eb3c 6759 74bd
00000040: 035a 5a3d 5334 89bb 5b00 4cbd 7cb1 423e
00000050: 63a3 e4bc a8bc 2e3c b891 12be 94f2 863d
00000060: bed4 11be 4175 9b3d 372d 2ebd 7035 0fbe
00000070: 92d1 d0bc 3cef 43be 8ff3 27be 09ae 593d
00000080: 5867 55bc edc9 4d3d 2445 80be 02de bb3d
00000090: 265d f13d 6ef0 e13d 338b 333e f9b3 d33d
000000a0: 8db8 ab3d 2d9a 6bbe c4b0 e83c 920f ae3d
000000b0: 5751 143d 5f06 213d 52c4 093e edf0 f2bd
000000c0: f9f1 943d 77af dd3d 7a44 503d 23de a9bd
000000d0: 74d0 753d 7727 28be 34cd a83d 7645 873d
000000e0: 80b3 af3d 9cc4 f13b 2a59 033e 2b39 a23c
000000f0: a421 103d 3b42 d73d 4751 f1bd c4bd f53d
00000100: 61bd 903d e254 55bc 2977 fdbd b3d7 0a3e
00000110: c8c4 06be 2456 123e 5615 f53b 4dc6 43be
00000120: ca50 0c3c b40c 073d 2848 c93d 0b3b c1bd
00000130: 7261 80be 7c4f f5bc 1afb 243e 3335 0c3e
00000140: e4a8 8d3d 896e 9f3d 38af 2e3d ddcb a2bd
00000150: 0637 12be 08e4 3cbe c937 5dbd 3608 893d
00000160: 1388 373d 15a4 e63d 1c7e 333d 7c6d 37be
00000170: e59e 57be 26a5 62be 6daf 823d 9f1b 75bd
00000180: e98d cfbd 6769 b73d 4349 083d 366d 263d
00000190: 8895 bb3c 5b77 d53c 971f 093e c6fc af3d
000001a0: 3f85 aabd 69bd edbd 7ed4 d3bd 72d0 df3d
000001b0: 701b 18be 80c5 bbbd fc2d 35bc 0187 24be
000001c0: 400e 34bd 1cdf 64be 6452 41bd 5126 a5bd
000001d0: 5c72 e0bd e672 f83c 68b9 8ebe aeea 39bd
000001e0: 6183 5dbe 8e3e 91be a58e 063d d98e c03d
000001f0: dbf4 c23d ace4 bfbc 8d46 e1bd e133 c73b
00000200: a207 20be 5e8e e73d a7e4 593d 4386 20be
00000210: bcdf 7cbe 6a20 0a3e 0590 45bd d0fb e9bd
00000220: 4f01 073e 2338 0ebe b8a9 ab3d 7570 9cbd
00000230: fbe4 323e a01d 31be b061 fb3d b0a0 693e
00000240: c635 ecbd aa75 debb 684c 3d3e 9f28 26be
00000250: c833 10be 3b92 b5bc bfcb 17be e2f0 5e3e
00000260: 523b 01be 90cf c7bd 1a0e a5be 98c8 153e
00000270: d7bd 69be 14d2 573e bc34 793c c028 07be
00000280: b434 7c3e 577f cfbc 62f1 a33d 623c 8abd
00000290: 716b 81bd 063a ec3d 4305 8cbd 649a 12be
000002a0: c0c1 afbd 44a1 cfbc 1166 853d 6b05 a5bd
000002b0: e66a d0bd 112a f63d 8fcb 43bd 56e7 e3bd
000002c0: 2c8a 6e3d a375 123e 78b8 ee3c 0f47 0ebe
000002d0: 88b3 c9bd 88e9 793b 216f b73c 6abd 0c3e
000002e0: dac9 3a3c 4403 cdba d8ee 13bd 66dc b7bd
000002f0: ccd7 c7bd e214 673d 10c4 efbc 1db3 733d
00000300: 7ce3 cb3a 1249 e03d 9c47 3abd 924d 2dbe
00000310: edf4 833d 9634 483e 1185 23be 7d9d d63c
00000320: 833d e8bc eb7e 283d 05c1 2ebe 8f9a 433e
00000330: 07fa f03d 5057 d13d a07b f13d 6a0a 173e
00000340: 68a4 4fbd d4c0 0e3d 80f0 29be b554 f93d
00000350: 31c8 023e 4cf2 e93d bd95 163e 2353 e8bd
00000360: 8ef9 723e 0362 fe3d 9526 143e 720d 81bd
00000370: 9fa3 353d 92f3 10bd 9ec5 ca3d bb7d 583a
00000380: 0248 633d 4b53 3e3d a753 d23d cf6f 33be
00000390: 977b 7ebe b24a 0cbe 2da8 f8bd 35ef 94bd
000003a0: 5381 483c 3480 54bd 8734 063e 1ba5 cebc
000003b0: 4f98 bfbd 5102 c9bc f2e7 123e 0b8f 28be
000003c0: 26d6 d43c 7970 0f3c 137d f03b 53f2 2bbe
000003d0: 3999 983d cfdc f2bc d53a 433e e869 68be
000003e0: 4a15 583d 2d24 053c 716f 403c 1f9f 35be
000003f0: 4b53 c5bd 8aa9 10bd 3e0a 5e3c f0fa 1f3d
-0.08706207 -0.018756548 0.07149675 0.066074714 -0.17948976 -0.06769864 -0.15092407 0.0032987245
-0.004997832 0.108196735 0.014002526 -0.0816435 0.04305449 -0.0008029388 0.02879152 -0.059655573
0.053308498 -0.0041871457 -0.049805027 0.19013017 -0.02790994 0.010665096 -0.143134 0.06589237
-0.14241311 0.07590724 -0.04252359 -0.13985229 -0.025490556 -0.1913423 -0.16401504 0.05314449
-0.013025127 0.0502414 -0.2505275 0.09173204 0.11785345 0.110321864 0.17533569 0.103370614
0.0838481 -0.23008032 0.0284046 0.084990636 0.036210384 0.039312717 0.13453797 -0.11862359
0.07272715 0.10824483 0.050846554 -0.08294322 0.06001325 -0.16421305 0.082422644 0.066050455
0.08579159 0.007378174 0.12826982 0.01980265 0.035188332 0.10510679 -0.117830805 0.119990855
0.07067371 -0.013020726 -0.123762436 0.13558845 -0.13161004 0.14290673 0.00747935 -0.19118614
0.0085641835 0.0329711 0.09828216 -0.0943509 -0.25074345 -0.029945128 0.16111413 0.13692169
0.06916979 0.07784755 0.04264757 -0.0794904 -0.14278802 -0.18446362 -0.05400828 0.06691019
0.044807505 0.11261765 0.04382144 -0.17912859 -0.21056707 -0.22133312 0.06381116 -0.059840795
-0.10134489 0.08955651 0.033272993 0.040631495 0.02289845 0.02605789 0.13390957 0.085931346
-0.08326196 -0.11608393 -0.10343264 0.1092843 -0.14854217 -0.091685295 -0.011058327 -0.16067125
-0.043958902 -0.22350734 -0.047197714 -0.08063949 -0.10959312 0.030328225 -0.2787583 -0.045389824
-0.21632148 -0.28368038 0.03285088 0.09402246 0.09519359 -0.023424469 -0.109997846 0.0060791825
-0.15627912 0.11306451 0.053196575 -0.15676217 -0.24694723 0.13488927 -0.04823305 -0.114249825
0.13184093 -0.13888602 0.08381981 -0.07638637 0.17470162 -0.17296457 0.12274492 0.22815204
-0.11533694 -0.006788929 0.18486178 -0.16226433 -0.14082253 -0.022164455 -0.14823817 0.21771577
-0.12620285 -0.09756386 -0.3223732 0.14627302 -0.22826324 0.21076232 0.015210327 -0.13199139
0.2462948 -0.025329275 0.080050245 -0.06749798 -0.06319321 0.115345046 -0.06836941 -0.14316708
-0.08581877 -0.025345452 0.06513608 -0.08057674 -0.10176639 0.12019742 -0.04780155 -0.11128108
0.05823724 0.14302687 0.029140696 -0.13894294 -0.09848696 0.003813358 0.022391858 0.1374413
0.011400664 -0.0015641232 -0.03611645 -0.089775845 -0.09757957 0.0564164 -0.029268295 0.059496988
0.0015555467 0.10951437 -0.04547845 -0.16924122 0.064432 0.1955131 -0.1596873 0.026198143
-0.028349644 0.041136663 -0.17065819 0.19101928 0.11766439 0.10221732 0.11791158 0.14750066
-0.0506939 0.034851864 -0.1659565 0.1217436 0.1277168 0.114231676 0.14705558 -0.11343982
0.2372801 0.12421038 0.14467843 -0.063013926 0.044345494 -0.035388537 0.09900974 0.00082584814
0.055488594 0.046466153 0.10269862 -0.1752312 -0.24851833 -0.13700369 -0.12141452 -0.072721876
0.012237865 -0.051880077 0.13105975 -0.025225213 -0.093552224 -0.024537237 0.14346293 -0.16460817
0.02598102 0.008754843 0.0073391288 -0.16791658 0.074511 -0.029646305 0.19065411 -0.2269665
0.052754678 0.008126301 0.01174532 -0.17736481 -0.096350275 -0.035317935 0.013552247 0.039057672

f7.bias f4 [10]
00000000: cc11 87bb 9a96 1dbe 3fba 653d edb1 e43d
00000010: 94b7 08be 6f8a c6bd a696 1d3e c9bf 5ebd
00000020: c524 893e a568 b8be
-0.0041219946 -0.15389481 0.05608582 0.11166749 -0.1335128 -0.09694373 0.15389499 -0.05438212
0.26785865 -0.36017337
